results/turtlesmany/Turtle/checkpoint.pt (torch, 441186 bytes, 33 tensors)

network_body._body_endoder.seq_layers.0.weight f4 [128, 5]
000000 65 09 a3 3e 8d d6 32 3f 7f 29 aa be 55 d5 22 bf
       0.31843105 0.6985863 -0.33234784 -0.6360677
000010 94 be a0 be 4a 0e c4 be 87 d2 9e 3e ee 36 1d bf
       -0.313954 -0.38292152 0.31019995 -0.6141194
000020 a4 d3 86 bd ee 77 46 3d 6f 12 ec 3e 93 bc ed bd
       -0.06583336 0.048454218 0.46107814 -0.11608233
000030 ce 8d 67 3d 0b 7a 8c 3e 04 04 65 3e 35 53 4f 3f
       0.05653172 0.2743686 0.22364813 0.8098634
000040 96 c1 be 3e 8e 02 88 be a6 9c 25 bf 41 88 35 3d
       0.3725707 -0.2656445 -0.6469215 0.044319395
000050 4d 19 d8 3e d0 ce 91 bf b9 01 7e 3f de e1 d0 3e
       0.42206803 -1.1391239 0.9922138 0.40797323
000060 4a e1 09 be 5e 84 cb bd c4 d1 86 bf 58 e8 4a be
       -0.13464847 -0.099373564 -1.0532765 -0.19815195
000070 7e 54 d8 3e c5 85 01 3d f0 8a 18 bf 1d f9 c3 3e
       0.42251962 0.031621713 -0.59587 0.38275996
000080 ff 7d 1c 3f b6 aa 04 3e 43 10 69 3d 43 3b e2 be
       0.61129755 0.12955746 0.056900274 -0.44185838
000090 ba 1b 69 3f 5e f4 f2 be 01 ca 37 3e 39 ab 74 bd
       0.9105793 -0.47452062 0.17948152 -0.059733603
0000a0 44 db bd 3e 5e ee e8 3e 29 a0 42 3f 41 bd 98 be
       0.3708135 0.4549436 0.76025635 -0.2983189
0000b0 83 2e 72 3e c6 7f fb bd 84 66 8c bd 52 bb c2 be
       0.23650555 -0.1228023 -0.06855491 -0.3803354
0000c0 6c f0 02 be 84 f5 95 bf 0e 3b 45 3e 05 b5 a2 3d
       -0.12787026 -1.171555 0.19260809 0.07944683
0000d0 c4 29 85 3f 28 20 b7 be de d6 c1 3e 08 3c 15 3e
       1.0403371 -0.3576672 0.37859243 0.14573681
0000e0 1b 34 7b 3e 70 4f a2 be b1 5d c2 be 77 40 e1 3e
       0.24531595 -0.3170123 -0.37962106 0.43994495
0000f0 72 9e 66 be 23 98 bc 3e db 0d 4d 3f 7a b2 6e bf
       -0.2252138 0.3683482 0.80099267 -0.93241084
000100 77 d0 06 3e 51 51 bd 3e 2b 8d 1f bf 19 07 86 bf
       0.1316546 0.36976102 -0.6232478 -1.0470916
000110 b1 4b ba be 09 da 0c 3f 83 ce b6 3e fa 85 9c bd
       -0.36385873 0.55020195 0.3570443 -0.076427415
000120 90 be 19 bf 78 14 76 3f f2 15 3f 3f 6e 20 09 3e
       -0.600564 0.9612498 0.7464286 0.13391277
000130 14 6b e5 3d 31 f0 13 3f 99 a2 dd be 35 1a 00 bf
       0.11202064 0.5778838 -0.43288115 -0.5003999
000140 18 28 0b bf 26 61 37 be 98 bf e4 be 9e a2 f1 3c
       -0.54358053 -0.17908153 -0.44677424 0.029496487
000150 95 2e a6 3e 0b b2 68 3f 5a 29 f9 3e 37 5a b1 3e
       0.32457414 0.9089667 0.4866436 0.3463914
000160 62 66 b1 3c dd 5f 08 be 5a 05 3d 3f 53 27 dc be
       0.021655265 -0.13317819 0.7383629 -0.42998752
000170 1d d0 27 3f 11 95 46 3f 37 f8 ee 3e 90 90 a5 3d
       0.6555193 0.7757121 0.46673748 0.08084214
000180 98 ac 14 3f 95 67 fd 3e e1 c6 24 3d ec 33 53 3e
       0.5807586 0.4949309 0.04022873 0.20625275
000190 ae 2e d3 be fe 24 8d bd f9 dd 14 bf 3e 57 73 3d
       -0.4124655 -0.06891821 -0.58151203 0.059409373
0001a0 80 20 18 bf 72 f1 c2 be 82 7c 9e 3e 32 ba 3f be
       -0.5942459 -0.38074833 0.30954367 -0.18723372
0001b0 9b ea 36 bf 0c 64 89 bf 7d 2c 06 3f 80 de f9 3e
       -0.7145173 -1.0733657 0.52411634 0.48802567
0001c0 d5 fd f8 be 45 32 d1 3c 66 b8 83 bf c7 92 a2 be
       -0.48631158 0.025536666 -1.0290649 -0.31752607
0001d0 6f 0d 1d be ea 25 aa 3c 8f 51 44 3f 6a a6 74 3e
       -0.15337156 0.020770032 0.7668695 0.23891607
0001e0 cb 42 31 3f 29 d7 a4 3d 68 5a 42 be ce 41 1a be
       0.69242543 0.08048851 -0.189798 -0.15064165
0001f0 90 5f 41 be bb 68 15 3e e1 ec fa be 48 04 5b 3f
       -0.1888411 0.14590733 -0.4900885 0.8555341
000200 bb 11 12 3f d7 fe 2b bf 6b 16 d4 bd 48 36 dd 3d
       0.57058305 -0.6718573 -0.103558384 0.10801369
000210 90 4a 0f bf d1 d7 13 be e0 95 18 3c 67 bb 8e 3d
       -0.5597315 -0.14437796 0.009313077 0.06969338
000220 1e b5 59 bf 0d 23 ad be 81 74 d6 be 0b 72 22 be
       -0.8504199 -0.33815804 -0.4188576 -0.15863816
000230 49 15 6e bf 6a a6 dc be 46 ff a8 3f 88 69 02 bf
       -0.9300123 -0.43095714 1.3202903 -0.5094228
000240 8f f9 71 be 84 5f 84 bd 03 ed 18 be c2 9b 29 3d
       -0.23630355 -0.06463531 -0.14934163 0.041408308
000250 25 5b 5d 3e be 81 ed 3e 21 63 f4 be ec b8 47 be
       0.216168 0.46388048 -0.4773188 -0.19504136
000260 4a 28 33 3e 43 e7 7e bc ec 8e f9 be 6a 99 ed 3e
       0.17495838 -0.015558067 -0.48741853 0.46406108
000270 4a f6 1d bd 17 a2 6a be e6 5e cf be e8 3b ce 3e
       -0.038564958 -0.22913395 -0.4050209 0.4028008
000280 91 3f b5 3e 0b 37 9c be 72 ed 17 be 10 1f d5 be
       0.3540006 -0.30510744 -0.14836672 -0.4162526
000290 bf b5 8a 3e 2a 1e ac 3e 2b fe 64 bf f1 0b 3e bc
       0.27091786 0.33616763 -0.8945033 -0.011599527
0002a0 00 66 e4 bd 17 0e e4 3e f6 b8 75 3d 15 5e 6f be
       -0.111522675 0.44542 0.059990846 -0.23375733
0002b0 6c 2e 82 be b6 04 35 3f 8f 85 cd 3d 09 c1 ee 3e
       -0.25426042 0.70710313 0.1003524 0.4663165
0002c0 3c ae cf 3e 74 07 06 3e 72 f9 ea 3e fb 93 10 bf
       0.40562618 0.1308878 0.45893437 -0.564758
0002d0 66 b9 f1 3d 1c 39 b4 bd 63 52 c8 be 3a d6 6e bf
       0.1180294 -0.08799955 -0.39125356 -0.93295634
0002e0 d1 a6 1a be 11 54 ec 3d a6 a0 0c 3e d5 23 e4 be
       -0.15102698 0.11539472 0.13733158 -0.44558588
0002f0 43 8c 8e 3e be 1c 34 be e9 80 47 3f 25 c8 29 be
       0.27841386 -0.1758909 0.77931076 -0.16580255
000300 0d 27 92 bd d8 c5 32 3f c2 be ce be a6 c9 74 be
       -0.071363546 0.69833136 -0.40379912 -0.23905048
000310 60 39 9d 3d 5b f0 44 3d 01 67 8e 3e ef f5 c7 3e
       0.07676959 0.048080783 0.2781296 0.3905482
000320 b4 c2 ac 3e b6 61 71 3f 54 b5 ff 3c 1b 2c 1a be
       0.33742297 0.9428972 0.031214394 -0.15055887
000330 b5 b3 21 be 02 73 8d 3f cc fd bb be a3 20 cd 3d
       -0.15791209 1.1050723 -0.3671707 0.100159906
000340 e9 41 81 bf 6e bc ce bd 6b 5c 05 bf 8a 05 09 3f
       -1.0098239 -0.10094534 -0.52094144 0.53524077
000350 51 28 4b bf 04 d4 8d be 64 8e 98 bd 5d c8 d4 bc
       -0.7935839 -0.27700818 -0.07449034 -0.025974447
000360 f7 c8 bd be 52 02 37 be 26 19 14 3b f4 1c 80 3f
       -0.37067387 -0.17871979 0.0022597997 1.0008836
000370 22 f8 96 be a4 2d ab 3e 01 47 97 be e7 1b 0c bf
       -0.29486185 0.3343326 -0.2954636 -0.54730076
000380 f9 f1 aa be 15 ec 11 3d 8a 9e d8 3e 36 9a 86 be
       -0.33387735 0.035625536 0.42308456 -0.2628953
000390 3f 7d ab bd 33 c7 b8 3c 37 46 0e 3f e6 ef c4 3e
       -0.08373498 0.022555923 0.5557589 0.38464278
0003a0 d7 e8 7e be cc d5 27 be 1e 09 02 bf 5e be f5 bc
       -0.24893509 -0.16390151 -0.5079516 -0.029998
0003b0 97 7a af be a5 14 4f 3e 75 bc 3f bf 79 bf 46 bf
       -0.34273216 0.20222719 -0.7489694 -0.77635914
0003c0 0a d4 13 3d 2d f2 7c bf b0 22 41 be 48 0f de be
       0.036090888 -0.9880703 -0.18860888 -0.43371034
0003d0 fa 86 b8 3e c4 8f 2b bf 24 46 0a bf 49 26 c2 3c
       0.3604048 -0.67016244 -0.54013276 0.023699896
0003e0 81 06 5b 3d c1 5b 07 bf e5 84 13 3f 73 f7 0b 3f
       0.053473 -0.5287438 0.57624656 0.5467445
0003f0 92 41 4b be 52 c1 ae 3e da 8c d4 3e 19 cd 9e 3e
       -0.19849232 0.34131867 0.4151371 0.31015852

network_body._body_endoder.seq_layers.0.bias f4 [128]
000000 5f 69 53 3d 65 a0 05 bd f6 bd 80 bd bb 18 4d bd
       0.05161416 -0.032623667 -0.06286232 -0.050072413
000010 80 1f be 3d 78 a0 8f bc dd 1f eb 3d ba a5 29 3d
       0.09283352 -0.017532572 0.11480687 0.041417815
000020 a2 eb f3 3d d4 48 a5 3d de 17 53 3d f1 08 08 bd
       0.11910178 0.080705315 0.051536433 -0.033211652
000030 17 d2 86 3d 9f c5 24 bd ab 14 2c bd 8e 87 22 3d
       0.0658304 -0.04022753 -0.042011898 0.039680056
000040 f2 b9 85 bc 1a 25 6d 3b 29 d3 26 bc f1 e5 ea 3d
       -0.016324017 0.0036185444 -0.01018218 0.11469639
000050 81 43 c2 3d fa 46 9c 3d f9 88 89 3d 33 93 95 3c
       0.094855316 0.07630725 0.067155786 0.018258667
000060 31 a0 b0 bd 3c 57 93 3d 46 0a 03 bd 2c 57 67 3a
       -0.08624304 0.07194373 -0.03199222 0.00088249403
000070 d6 d1 48 3d 1c 48 d7 3c fe 60 b8 3d 42 37 06 bd
       0.04902824 0.026279502 0.09002875 -0.03276754
000080 2b 7d 2b bd fc 1c e5 bc f4 03 1e bd 2e c6 77 3d
       -0.041867416 -0.027967922 -0.03857799 0.060491733
000090 af b3 dc bc 31 9b 8d bd 82 b2 95 3d 38 e4 0d bd
       -0.026941149 -0.06914366 0.07309438 -0.034641474
0000a0 fa e4 bb bc f0 6e 1d bc ab dc 13 bd cc 82 43 3d
       -0.022936333 -0.009608969 -0.036099117 0.04773216
0000b0 83 4d 46 3d 18 15 64 bd 16 37 27 3d 69 ac 84 3c
       0.048413765 -0.05568418 0.04082402 0.016195493
0000c0 35 f9 b6 3c fe f0 d8 3d 52 98 93 bd cd c1 d5 3d
       0.022335628 0.105928406 -0.07206787 0.10437355
0000d0 d0 ba 55 3d 21 63 c8 3d 7f b7 61 bc 25 e3 ac 3d
       0.05218011 0.09784532 -0.013776659 0.08441762
0000e0 82 8c 43 3d 51 4b 88 3d c5 bb 5e bc 87 35 95 3d
       0.04774142 0.066549905 -0.013594572 0.072856
0000f0 df 59 9f 3d bd 39 cd 3d 2b 34 a8 bd 07 e0 c3 3d
       0.077808134 0.10020778 -0.08213075 0.09564214
000100 42 47 a3 bc 12 30 8d 3d a6 bd c4 3d 9e 93 9c 3d
       -0.01993144 0.06893934 0.09606485 0.07645343
000110 b9 b1 82 3d fc a3 66 3d 9d df 41 3d 0b fc 67 3d
       0.06381554 0.05630873 0.047332395 0.05663685
000120 be c6 cf 3d 16 c9 3e bd 8c 06 af 3d 27 71 2c 3d
       0.10145329 -0.04657849 0.085461706 0.042100098
000130 18 99 8f bc 19 39 36 3d 83 7e c1 3d 87 5d c7 bd
       -0.017529055 0.044488046 0.09447958 -0.09734636
000140 1b 6d 9e 3c 04 33 95 bc f5 71 f5 3c e8 c3 1d 3d
       0.019339135 -0.018212803 0.029961566 0.03851691
000150 f5 9e a7 3d 88 a1 d5 3b 82 f5 94 3d 20 d0 26 3d
       0.081846155 0.0065195 0.072733894 0.040725827
000160 86 0d 6a 3d c7 6f 5b 3d 69 25 86 3d b8 de 7f 3b
       0.057141803 0.053573396 0.06550104 0.0039042663
000170 ed f0 ab bc 83 d8 38 bc aa b8 32 3c c4 e7 2f 3d
       -0.020988906 -0.011282089 0.010908285 0.04294564
000180 f0 b2 b1 3b b4 e9 bb 3d 16 8a d6 3c 45 81 3d 3d
       0.0054229423 0.09175435 0.026188891 0.04626586
000190 9a 7c 7d 3c 99 91 98 bb 46 66 07 3d f5 56 0d bd
       0.015471602 -0.0046560285 0.03305652 -0.034506757
0001a0 36 7c 7a 3c df 84 e2 3d 55 a0 c9 3c 69 c4 d9 3d
       0.015288403 0.110604994 0.024612585 0.106331654
0001b0 47 34 b7 3d 7a cb 1d 3d 02 ea a6 3d 56 f9 67 bc
       0.08945518 0.03852413 0.08150102 -0.014158567
0001c0 44 c7 58 bb e2 da b7 3d a2 6d 68 bd 21 31 81 3d
       -0.0033077756 0.089772955 -0.05674518 0.06308199
0001d0 e4 4a 72 3d f2 9a 84 bd f9 4a 11 3d 29 ca 88 3d
       0.059153453 -0.06474866 0.03547189 0.06679184
0001e0 74 b1 79 3d 52 56 ff 3c 00 e4 0a 3e 30 9f 72 3d
       0.060960248 0.03116909 0.13563538 0.059233844
0001f0 95 6b 8b 3d bf 84 4a 3d eb 9d ae bd 6e 6e e3 3c
       0.06807629 0.049443003 -0.08526214 0.027762618

network_body._body_endoder.seq_layers.2.weight f4 [128, 128]
000000 72 af 2c 3d 53 a5 93 3d 4c fc 8e 3c 92 92 5a bd
       0.042159505 0.072092675 0.017454289 -0.053362437
000010 7d 92 c4 bd 2e e0 c6 3a a2 32 52 be 01 34 fe 3c
       -0.09598253 0.0015173012 -0.20527127 0.031030657
000020 92 39 cb bb 2a f9 14 bb 40 fa 65 bd 9a df 1b be
       -0.0062019313 -0.0022731521 -0.05614686 -0.15222016
000030 3e 4a 7c 3d 1c d0 1e 3c e7 76 05 3e ae 74 31 be
       0.06159424 0.009693172 0.13033639 -0.17329666
000040 06 ac c1 3c 73 7d d8 bd 1d 5e b2 3d 42 37 61 bd
       0.023641597 -0.105708025 0.08709357 -0.05498434
000050 40 fc 99 bc aa a9 82 bd d1 49 68 3b 6c 89 f1 3d
       -0.01879704 -0.06380017 0.0035444389 0.11793789
000060 1c 3f 4f 3d 97 68 d5 3a 70 80 b4 3c 30 d5 b9 bd
       0.050597295 0.001628178 0.0220339 -0.090738654
000070 10 1b c3 bc 11 f1 1d bd a3 a6 e3 3c de ca 14 3d
       -0.023816615 -0.038559977 0.02778942 0.03632628
000080 38 91 60 bd 05 12 8c bd e2 e7 b2 3d 5c e3 21 bd
       -0.05482599 -0.068393745 0.087356344 -0.039523467
000090 03 36 b7 3d 37 98 40 3d 99 8d 02 39 ea ff 83 3d
       0.08945849 0.047020163 0.00012450515 0.06445296
0000a0 93 02 0a be 1a 8b 81 3d a5 68 b1 bc 74 21 a8 3d
       -0.13477544 0.0632536 -0.021656344 0.08209506
0000b0 2e d9 cf bd ac b3 23 bd ba 9a 64 3c e1 75 a4 3c
       -0.101488456 -0.03996627 0.013952905 0.02007574
0000c0 1d ea 10 be 67 5e 50 be 65 b1 d2 3d 77 55 4d bd
       -0.14151807 -0.20348512 0.102877416 -0.050130334
0000d0 dd 9c 84 3c 2e ca 4d be ee 8c fe bc 22 6d 2d be
       0.01618808 -0.20096657 -0.03107306 -0.16936162
0000e0 47 ce 2d 3c 1c 9f ef 3d f2 dc 30 bd a9 97 58 3d
       0.010608262 0.117002696 -0.04317946 0.05287901
0000f0 8a 2d 95 3d 1e cc 43 3e 59 7d aa 3d 19 6f c5 3c
       0.072840765 0.19120833 0.083246894 0.024100827
000100 40 91 cc 3d 7d 97 9f bc dc 06 9b 3d a2 bc 74 3d
       0.09988642 -0.019481415 0.07569668 0.059750207
000110 cf 54 09 3b 45 d7 15 3d d1 60 ac 3c b3 27 77 bd
       0.002095509 0.03658225 0.02104226 -0.060340595
000120 72 4a fa bd ab c9 22 3d 46 b4 43 be 0a 9b 0a 3d
       -0.122212306 0.039743107 -0.19111738 0.033839263
000130 08 1c c6 3c 75 79 ab bd 52 52 3d bd 7d 2a 47 3d
       0.024183288 -0.083727755 -0.046221085 0.048624504
000140 ed c5 2e be b9 70 ba 3b 48 f2 17 3d d6 89 97 bd
       -0.1706769 0.005689707 0.03709629 -0.07399337
000150 af 22 46 bd af 88 2b bb 48 68 1d be ff e8 41 be
       -0.04837292 -0.0026174 -0.15371811 -0.18936537
000160 a9 2b d5 3c f8 b4 75 be 1c d2 9f 3c 85 30 7a bc
       0.026021795 -0.23994815 0.019509368 -0.015270357
000170 4f 30 10 3c db 2b cd bc db ee 76 3d 0f ea bc bd
       0.00880058 -0.025045326 0.060286384 -0.09224331
000180 28 fe 92 3d 65 8b e5 bd 8e 3c 74 bc 80 97 50 3b
       0.07177383 -0.11208228 -0.0149070155 0.0031828582
000190 a9 b4 3f bd aa 69 74 bb 55 e2 bd bd 28 68 67 be
       -0.04680315 -0.0037294426 -0.09271685 -0.22598326
0001a0 40 aa db bd 0b db d7 3c 7b 81 a3 bc 38 b6 99 3d
       -0.10725832 0.026349565 -0.019959202 0.075054586
0001b0 7b d3 2b be 7a 85 9c 3d 69 f9 a2 bd 26 a2 47 be
       -0.16779892 0.07642646 -0.079577275 -0.19495448
0001c0 f9 5b a4 bc 13 d6 04 be 09 2a 71 3c 0c 72 94 3c
       -0.020063387 -0.12972288 0.014719495 0.018120788
0001d0 3f c0 9a bb a4 18 c4 3c 74 d1 ee ba b6 40 8a bd
       -0.0047226246 0.02393753 -0.0018220381 -0.06750624
0001e0 ad 07 9e 3b 58 47 d7 3c 50 82 de bd 58 a5 18 bc
       0.0048226924 0.026279137 -0.10864699 -0.009316765
0001f0 27 54 a0 3d 4b cc 11 3d 1a 28 58 bb c6 cd d8 3d
       0.07828551 0.03559522 -0.0032982887 0.10586123
000200 24 38 13 be d5 ea 69 bd da ad 49 3e 9a 7d 16 be
       -0.14376885 -0.05710872 0.19695225 -0.1469635
000210 99 01 9c bd ea 02 2b bd 71 d8 e1 3b 36 34 15 3d
       -0.07617492 -0.041750826 0.006892257 0.036426745
000220 e2 4d 40 3d 56 86 9c 3a a7 9e 51 3c 51 f0 43 bd
       0.046949275 0.0011941891 0.012794173 -0.047836605
000230 9a 5e d8 bc ee a0 1e be 30 86 08 3e 04 dd 45 bd
       -0.026412297 -0.15491077 0.13332438 -0.04830648
000240 e7 86 45 3c 56 bc 8a bd 7f 4f fb 3d 2e fd 9c 3d
       0.012056089 -0.067742035 0.12271022 0.07665478
000250 d7 b3 81 bd 10 ad 04 3e c8 e5 8e 39 11 91 3f 3d
       -0.0633313 0.12956643 0.0002725555 0.046769205
000260 e2 12 f3 bd 31 20 17 be b9 97 a7 bd 6d 71 c9 bd
       -0.11868836 -0.14758374 -0.08183236 -0.098360874
000270 fa b6 a7 bd c4 3d 27 3e f5 60 f4 bd 5d 78 2a 3c
       -0.08189197 0.16332155 -0.119325556 0.010404673
000280 3e 9a ff bd 86 9b 11 3e 5b 00 64 3d be 63 2e be
       -0.12480591 0.14219484 0.0556644 -0.17030236
000290 5d 2e 22 be 66 15 ea bd 47 34 1c 3e 63 10 b5 3d
       -0.15837999 -0.11429863 0.15254317 0.08841016
0002a0 11 c1 83 be d4 b8 2e be f1 a5 1f bd ff 6c 93 3e
       -0.25733235 -0.17062694 -0.038976613 0.28794095
0002b0 e9 f9 af bd cf 32 0c be 50 69 09 be 50 ff a7 bd
       -0.085925885 -0.13691257 -0.1341908 -0.08202994
0002c0 e2 9e 6a 3e 61 e8 2b 3e e2 67 5d 3d dd 87 8e bc
       0.22912171 0.16787864 0.05405415 -0.017398769
0002d0 89 0e 8d 3d d4 b3 b0 bd 74 19 54 3d c0 71 1b bd
       0.06887538 -0.086280495 0.051782086 -0.037950277
0002e0 4c d5 89 bd 07 89 9c bc 2a bf b1 3c 18 78 dc bd
       -0.06730136 -0.019108308 0.0216976 -0.107650936
0002f0 a6 d9 bc 39 ff 16 59 3d e4 84 71 3c 80 8a 99 b8
       0.00036020315 0.053000446 0.014741156 -7.321406e-05
000300 a5 04 34 3e 1a 8d d6 bd e8 22 5b 3e bb 52 8b 3d
       0.17579897 -0.10476132 0.21400034 0.06802889
000310 1c e7 ec bd 68 d0 86 bd ae be 54 bd 7c 60 2d bd
       -0.11567518 -0.06582719 -0.05193966 -0.042328343
000320 62 a3 c8 bd 7e c5 0e bd 47 16 e8 bc 1f c9 4b 3d
       -0.09796788 -0.034856312 -0.028330935 0.04975235
000330 83 3d ae bd 18 37 be bd 05 ca 40 bc 73 37 0f be
       -0.08507826 -0.09287852 -0.011766915 -0.13985996
000340 9b 9c 28 bd d9 44 4d be bf c8 00 be 1d 9e 49 be
       -0.041164976 -0.20045795 -0.12576579 -0.19689222
000350 06 01 31 3e f0 35 10 3e d9 f3 24 3e 96 78 98 bd
       0.17285547 0.14083076 0.16108645 -0.07444875
000360 6a 7b c8 bd 66 fe cc bd 97 cd 11 3e 23 66 09 3b
       -0.09789164 -0.1000946 0.14238583 0.002096542
000370 8e ee f3 3d f7 97 37 be 10 cf d3 bc 28 c2 3e bd
       0.11910735 -0.17929064 -0.025855571 -0.04657188
000380 32 a2 74 be ec 35 c1 bd 88 a4 a1 bd d7 93 15 be
       -0.23889998 -0.09434113 -0.0789271 -0.14607178
000390 be 82 13 be f5 c2 6f 3d 67 ce 72 3d a3 f2 b6 3b
       -0.14405343 0.058535535 0.059278872 0.005583124
0003a0 95 89 6b 3d 51 c4 2f 3d f5 6d 11 3d 9e fb d7 3c
       0.057504255 0.04291183 0.035505254 0.026365098
0003b0 05 d3 22 be 70 f5 63 bb 26 d9 11 be ee 9c 91 3c
       -0.1590081 -0.0034783743 -0.14242992 0.017775025
0003c0 73 9b f2 bc 8f ca b9 3d 25 3e 86 bd 02 b7 34 bc
       -0.02961514 0.09071838 -0.06554822 -0.011029961
0003d0 69 6d 20 be 5f c4 5f 3c b5 4e 1f 3b 39 84 7a bd
       -0.15666737 0.013657658 0.0024308388 -0.061161254
0003e0 d3 e1 f8 bc 62 b8 07 3d 8e 94 e4 3d 5a 93 f1 3d
       -0.030381119 0.033134826 0.11161147 0.11795683
0003f0 ac ef 50 3d 79 66 9c 3d bf 65 eb bd f7 5a 5f be
       0.05100982 0.076367326 -0.11494016 -0.21812044

network_body._body_endoder.seq_layers.2.bias f4 [128]
000000 1b 9c 31 bd 73 db 1d 3d 41 51 9e 3c 66 66 e3 bc
       -0.043361764 0.03853936 0.019325854 -0.027758788
000010 fe 44 c3 3c 35 a8 28 bd c0 b2 73 3b 76 c9 39 3d
       0.023836609 -0.04117604 0.00371854 0.045358144
000020 85 e8 46 bb 0f e2 91 bd a4 f8 74 3d 2d ad 28 3d
       -0.0030350995 -0.071231954 0.059807435 0.04118078
000030 a5 69 a0 3d 8b 3b 13 3d 1d e0 6f bd fa f4 8b 3d
       0.0783265 0.035945456 -0.05856334 0.06833835
000040 1d 45 80 bc 62 52 71 bd 5c 00 8e 3b 5c c3 11 bd
       -0.015657956 -0.058916457 0.004333539 -0.0355867
000050 19 2b fe 3c 44 71 8e 3d 7f a9 bd 3d e4 63 38 bc
       0.03102641 0.069551975 0.092608444 -0.0112542845
000060 d6 12 08 bd 23 d0 0a 3b 62 3c 33 3d 1a 56 b7 3b
       -0.03322109 0.0021181188 0.043758757 0.005594981
000070 cf 5a 86 3d 52 c5 ca bb 11 12 57 bd e2 bb cd 3c
       0.06560289 -0.006188073 -0.052507464 0.025114004
000080 f9 2d 29 3d 95 f9 cd 3b d5 a1 19 3c 2f 8e 32 bc
       0.04130361 0.006285856 0.009376963 -0.010898157
000090 94 32 0b bd cb 10 a9 3b fa 87 99 3b 67 42 a8 3d
       -0.033983782 0.0051594726 0.004685399 0.0821579
0000a0 83 5d 94 3d d5 9a 66 bd 60 60 09 bb d9 4a 35 bd
       0.072443984 -0.056300003 -0.0020961985 -0.044260833
0000b0 5c 47 33 3b 3a ea 98 3d bb f0 c7 3c a9 a0 64 bd
       0.0027355766 0.0746655 0.024406781 -0.05581728
0000c0 d4 2d a4 bb 1c e7 96 bd 22 41 13 3d 25 c9 65 3b
       -0.005010346 -0.07368299 0.035950787 0.0035062518
0000d0 e5 d5 62 3d 74 25 89 3b ff 25 40 3d ca 8f 84 3b
       0.055379767 0.004185373 0.046911236 0.0040454613
0000e0 9c ba ac 3d e6 c3 f3 3c db ad 2d 3d 06 0b d0 bc
       0.084340304 0.029756498 0.04240213 -0.025395881
0000f0 4b 2f a4 bc 2b b9 93 3c 72 0f 57 3c 07 23 85 bd
       -0.020042082 0.01803263 0.013126241 -0.065008216
000100 9f 04 1b bd 95 1d 63 bd 54 42 aa 3d 4c 60 a5 bd
       -0.037846204 -0.055448133 0.08313432 -0.08075008
000110 e4 97 15 bd 9c 64 03 3d 1d a4 85 3d 29 63 db 3d
       -0.036521807 0.03207837 0.06525443 0.10712273
000120 bc 07 7f bd 08 85 f9 bc eb c5 b8 3d 21 05 7c 3d
       -0.062263235 -0.030458942 0.09022125 0.06152833
000130 18 6e 8b 3b 37 cd fb bc a3 cd 61 bd 2a f3 98 bd
       0.0042550676 -0.030737503 -0.05512775 -0.07468255
000140 c8 55 a8 bd 90 3e 09 bc 9e 89 05 3d 01 9f a9 3d
       -0.082194865 -0.0083767325 0.032601945 0.08282281
000150 03 39 a4 bb 1c 47 9e 3d 0b d0 4c bb b0 c9 86 3d
       -0.005011679 0.07728407 -0.0031251933 0.065814376
000160 43 17 a8 3d 2d ee c7 3c 63 85 7a 3b ef ad f7 bc
       0.08207562 0.024405563 0.0038226477 -0.030234305
000170 04 af 4f bc 8f f7 92 bd d8 03 4a 3d 12 97 9c 3d
       -0.012676004 -0.07176124 0.049320072 0.07646002
000180 de 14 0f 3c 31 8c 3f 3d e5 87 cf 3d 4b 83 9c bd
       0.0087330025 0.046764556 0.10133342 -0.0764223
000190 4d 5b a3 3d 0b 93 93 3d d5 80 cb bc 77 1b 2f 3d
       0.079763986 0.072057806 -0.024841705 0.042750802
0001a0 a2 c5 5f bd fe 42 8a bd 64 b4 9e bc 0a 23 70 bd
       -0.054631837 -0.06751059 -0.019373126 -0.058627166
0001b0 c4 a6 99 bb c6 3b 4c 3d 78 92 57 3d d2 66 0b 3d
       -0.0046890695 0.049861692 0.052629918 0.034033604
0001c0 7e 90 8e 3d ac c5 37 bd 24 92 f9 bc 40 21 58 3c
       0.069611534 -0.04486625 -0.030465193 0.013191521
0001d0 71 7d 9e 3c 46 55 40 bd 01 ff 21 3d b8 af 9c bd
       0.019346924 -0.046956323 0.03954983 -0.07650703
0001e0 68 41 94 3d 31 f1 7e bc a3 99 6c bd ac 04 8d 3c
       0.07239038 -0.015560434 -0.057763707 0.017214142
0001f0 97 cd 8e bc b2 aa 52 3d 02 26 10 3d 14 fd 42 3d
       -0.017432017 0.05143232 0.035192497 0.047604635

action_model._discrete_distribution.branches.0.weight f4 [4, 128]
000000 21 cf 88 3b 87 fc c8 bc a7 b0 d9 bb fb 18 ab bb
       0.0041750823 -0.024534477 -0.006643373 -0.0052214838
000010 79 46 4d bb 82 7e 49 3c d0 5d 4b bc dc 20 9f bb
       -0.0031322523 0.012298228 -0.012412503 -0.004856212
000020 c6 ec bb 3c 48 49 27 3d 2c 67 92 bb 0e a4 d4 3b
       0.02294005 0.04084137 -0.0044678655 0.0064892834
000030 aa a9 90 3c aa 30 a5 bc d5 82 d5 3b 45 6e 9c 3b
       0.017659027 -0.020164806 0.0065158405 0.0047738873
000040 b7 2b 5c 3b 57 9d 5b bb 41 3f bb bc 22 02 b4 3b
       0.0033595392 -0.003351053 -0.02285731 0.0054934183
000050 28 6b 4c bc b0 5e 55 bd 1b f3 39 bc af 8f 19 bc
       -0.01247672 -0.052092254 -0.011349465 -0.009372636
000060 10 f9 26 bc a5 d7 01 3c 6b a9 be bb 27 08 85 bc
       -0.010191217 0.007924949 -0.005818536 -0.016239239
000070 31 fc 09 bd 4b f0 c8 3c e3 e6 58 3c d3 a2 3d 3b
       -0.033687774 0.024528643 0.013238641 0.0028936162
000080 86 d5 ab bc c4 3e 18 3c 29 2c c9 bc 74 74 6f bb
       -0.02097584 0.009292308 -0.02455719 -0.0036537917
000090 22 a1 dc bb be da a6 bb d1 e2 95 3c 05 a6 2d bc
       -0.0067330757 -0.005091994 0.018296631 -0.010598664
0000a0 b6 73 70 bc ad 65 b8 3c eb f6 28 bc 27 9c 33 3c
       -0.014676025 0.02250942 -0.010312776 0.010962523
0000b0 5f 63 de bc 86 93 ac ba ed 67 ac 3b 8b b3 4d 3c
       -0.027146993 -0.0013166524 0.0052614124 0.012555013
0000c0 bc 0f 5d bc 57 9d 58 3c 38 20 0a bd fe 57 7b bc
       -0.013492521 0.0132211065 -0.033722132 -0.015340803
0000d0 f5 a9 62 bc f6 97 98 bc 8b 26 b5 bb f3 11 4b bb
       -0.013834466 -0.018627148 -0.0055282763 -0.003098604
0000e0 d7 b7 12 bc eb 07 8d 3c f8 5a bc 3b c3 0f 56 3c
       -0.008954964 0.01721569 0.005748149 0.013065281
0000f0 bc 03 02 bc e3 11 e5 bc 4f 1a fc bc 67 da 93 3c
       -0.007935461 -0.02796263 -0.030774264 0.018048478
000100 f9 f7 71 3a f6 78 fc 3b c9 60 33 bd 0c 16 f1 3c
       0.0009230371 0.0077048494 -0.043793473 0.029429458
000110 bc 9d 8b 3c b1 6c b9 3a a1 76 42 bc 23 c1 01 bd
       0.017042987 0.0014146772 -0.011869104 -0.03167833
000120 6b e4 c7 3c a6 f7 f2 3c 63 60 6c bc 59 c9 b7 bb
       0.02440091 0.029659104 -0.014427277 -0.0056087193
000130 10 4a 07 bc 78 99 10 bb 41 6a 0a 3c da 37 08 3d
       -0.008257404 -0.002206413 0.0084481845 0.03325639
000140 5b 5c 6b 3c 26 76 89 bc f5 30 19 bc 75 d1 96 bc
       0.014365281 -0.01677997 -0.009350051 -0.018410424
000150 74 8e 76 3c 60 5d 28 3b 5c 00 d9 3b b2 53 bc bc
       0.015048612 0.0025690421 0.0066223573 -0.022989128
000160 a8 bf 8b bc ef e1 bd 3b ef 00 00 3d dc e9 7f bc
       -0.017059162 0.0057947556 0.03125089 -0.015619721
000170 92 21 35 bc 04 8d 0b 3d 18 d0 a8 bb b2 39 85 bc
       -0.011055367 0.03407003 -0.00515176 -0.016262863
000180 e9 5e 56 bc a4 90 eb bc 56 9e 27 bd 91 af 33 3c
       -0.013084152 -0.028755493 -0.040922485 0.010967151
000190 c2 62 23 bd 33 11 99 bc 42 37 67 3c 2b a4 09 bd
       -0.039889105 -0.018684959 0.014112296 -0.03360383
0001a0 3e 40 ec 3c 8b 0b 92 3b 0e 1b 0f 3d cf 5c ec 3c
       0.028839227 0.0044569424 0.03493791 0.028852848
0001b0 2b fc d7 bc e4 52 b0 3b 6a 6b 3d 3b 17 be 7f bc
       -0.02636536 0.005380975 0.0028903135 -0.015609286
0001c0 16 8d 0b bc ed 24 ea 3c 6a 64 80 3b 49 9a ce bb
       -0.008517524 0.02858206 0.0039182203 -0.0063050133
0001d0 58 92 6e 3c 7f 0a 87 3c 7b 87 a0 bc 83 e8 15 3d
       0.014561258 0.016484497 -0.019595852 0.036598694
0001e0 50 41 07 3c 8d fb 00 bc 9a 2a 50 3b 09 46 4c bc
       0.008255318 -0.007872474 0.0031763674 -0.01246787
0001f0 ce 74 c7 3b 3c 9d dd bb 05 10 ff bc 0e 3f cc bc
       0.0060869223 -0.0067631286 -0.031135568 -0.02493241
000200 53 da df bc e8 f7 8d 3d 8c db 0e 3c 6c 22 31 bb
       -0.027325785 0.0693205 0.008719336 -0.0027028574
000210 76 d1 52 3b 6d 16 07 bd 8c e0 a5 b9 e4 c9 38 3c
       0.0032168305 -0.03298037 -0.00031638553 0.011278603
000220 2b c5 36 bd 27 f4 ad bd ba a3 0e 3d 99 50 55 3d
       -0.044621628 -0.08493834 0.03482411 0.052078817
000230 81 7f 4c 3d 15 49 7b 3c 97 64 5e bd af 8d 44 3d
       0.049926285 0.015337248 -0.05429515 0.047986683
000240 1c b5 ea bb 58 35 23 bd ed 5d ba 3c b4 c0 29 bd
       -0.007162703 -0.039845794 0.022749865 -0.04144354
000250 04 c9 1b 3d 27 46 96 3d 3b 16 91 3d 43 c8 aa 3c
       0.0380335 0.07337599 0.07084318 0.020847445
000260 22 be c2 bb d0 3d 4a 3c e1 04 d8 3c d0 21 ce 3b
       -0.0059430758 0.012343839 0.026369514 0.006290652
000270 f5 9f 89 37 8a 12 aa bc 5a 2e aa bd f1 5f 9a 3b
       1.6406158e-05 -0.020760793 -0.08309622 0.004711144
000280 be c0 29 3d 06 7d 39 bd fe 03 36 3d f7 20 76 3c
       0.04144358 -0.045285247 0.0444374 0.015022508
000290 bf ca db bc 82 65 0b bd ab 68 16 bc 78 a4 44 3d
       -0.026830075 -0.034032352 -0.009180228 0.048008412
0002a0 d5 f5 5d 3d f8 6c c6 bd 97 30 eb bc 09 80 83 bc
       0.05418952 -0.09688753 -0.028709693 -0.016052263
0002b0 34 39 8a 3c 9c 64 a1 3d 20 54 52 bb 45 65 ec bc
       0.01687298 0.07880518 -0.00320936 -0.028856883
0002c0 49 59 cb 3c e2 22 a5 bd f1 da 3e 3d 99 29 d4 3a
       0.024822848 -0.08063294 0.046595518 0.0016186713
0002d0 1f a9 05 3c 10 b7 99 bc 25 2c 89 3c 1d 99 8d bb
       0.008157997 -0.018764049 0.016744683 -0.004321231
0002e0 87 84 4c 3d 72 bf 90 3b 15 2d 5d 3c 27 b5 13 bc
       0.049931075 0.0044173533 0.013499518 -0.009015358
0002f0 c6 cc 04 bc 1a 89 62 3d dd 37 4b 3d f6 d0 9c bd
       -0.008105462 0.05530653 0.049613822 -0.07657044
000300 18 41 ef bc 0b f8 87 bd fa 21 7f 3d 5e 39 b8 bd
       -0.029205844 -0.06639107 0.062288262 -0.08995317
000310 91 8d 3c bd bf fa 34 bd 72 67 06 b9 84 3f be 3d
       -0.046033446 -0.044184443 -0.00012817772 0.092894584
000320 eb 42 b5 bd 5d 87 8f bc a2 a8 84 3d 0b 3d 26 3c
       -0.08850654 -0.0175206 0.06477477 0.01014639
000330 63 51 79 bc 7b 7c 0b bd da 46 74 bd a1 5d d7 bd
       -0.015217158 -0.03405426 -0.05963788 -0.10515905
000340 a7 14 c5 bd 6c aa 74 3c 34 f5 4d 3a df e7 b9 3c
       -0.0962308 0.01493321 0.00078566675 0.022693573
000350 33 f8 8a 3a 83 c3 1a 3d d4 b8 61 bc db 33 a7 3c
       0.0010602534 0.03778411 -0.013776977 0.020410469
000360 fd 33 56 3d 8d 48 f3 3a 1d d9 98 3c 28 f7 b3 bc
       0.052295674 0.001856105 0.018658215 -0.02196844
000370 39 7d b7 ba 77 c3 8f bd 75 6d 83 3d c3 be 51 3d
       -0.0013999111 -0.07019704 0.06417362 0.051207315
000380 00 88 e8 3c 82 00 5c 3d 47 3b 9c 3d 19 4c 88 bd
       0.028385162 0.05371142 0.07628494 -0.066551395
000390 95 7e b1 3d 5b b6 53 3d 49 43 8a bd 55 8e 42 3d
       0.08666722 0.05168758 -0.06751115 0.04749902
0003a0 bd dd 7e bd 9c bd 48 bd 69 2d 56 bc 11 a7 7c bd
       -0.062223185 -0.04900895 -0.01307235 -0.061682764
0003b0 ff 27 b4 3c 39 70 6c 3d 35 70 a4 3c 8d 9e 87 3b
       0.021991728 0.05772421 0.020073036 0.004138774
0003c0 12 99 17 3c 77 3d c6 bd e6 39 16 bd cb d2 1a 3c
       0.009252803 -0.09679692 -0.03667631 0.009449671
0003d0 27 0c 81 3c cc 75 d6 bc e9 72 30 3d 76 d0 aa bd
       0.015752865 -0.026179217 0.043078337 -0.08340542
0003e0 36 e6 09 3d f0 84 98 3b e6 e8 32 bd 7a f9 f4 3b
       0.033666812 0.0046545193 -0.04367914 0.007476029
0003f0 92 7b 8a bc 1e 7e dc bc 8b 24 eb 3c 4d c8 e5 3c
       -0.016904626 -0.026915606 0.028703948 0.028049612

action_model._discrete_distribution.branches.0.bias f4 [4]
000000 f6 16 e2 bc 86 46 7a 3d e3 2c dc 39 e0 cc 3d bd
       -0.02759884 0.061102413 0.00041995113 -0.046337962

exp_avg f4 [128, 5]
000000 4f 94 39 b9 27 2b b2 b9 7d ff 97 39 d7 3c b1 38
       -0.00017698224 -0.00033982957 0.00028991318 8.45135e-05
000010 5d f2 d5 b9 1f dd 3a b9 0a 48 0e b9 90 73 39 39
       -0.000408071 -0.00017820716 -0.00013569012 0.00017686025
000020 67 38 b9 38 37 69 90 b9 79 16 75 b9 15 f1 9a 39
       8.831993e-05 -0.00027544211 -0.00023373392 0.0002955279
000030 0e 10 9a 32 dc f7 a5 38 c2 5b 4b 39 cf 8c d6 b9
       1.793526e-08 7.9139805e-05 0.00019393771 -0.0004092217
000040 84 f5 4e b9 63 5e ad 39 7c 19 22 39 d3 c3 23 ba
       -0.00019737153 0.00033067455 0.00015459018 -0.00062471366
000050 f0 77 a0 39 c7 4f 29 38 d2 68 d1 b8 c9 4f 0d b9
       0.00030606939 4.036704e-05 -9.985421e-05 -0.0001347653
000060 d9 f8 27 39 df e3 b7 36 e7 6d b3 39 d3 05 1f b9
       0.00016019064 5.4803527e-06 0.00034223424 -0.00015165591
000070 d0 44 62 36 aa 8a 17 39 2d 4e 1d 3a c7 f4 42 b9
       3.3716678e-06 0.00014452139 0.0006000724 -0.00018592468
000080 eb ea 50 b9 8d 9a 62 b9 db e4 c7 b9 83 d3 92 38
       -0.0001992394 -0.00021610614 -0.00038126748 7.00122e-05
000090 be 31 11 b9 e1 60 3c 38 fc dd 18 37 93 27 82 b9
       -0.00013846808 4.491292e-05 9.111591e-06 -0.00024825017
0000a0 00 49 cd 39 7a 9b 80 b9 93 2c 0c b9 a0 7f 0a b9
       0.00039155036 -0.00024529902 -0.00013368046 -0.0001320825
0000b0 ba 3e 53 b9 78 5e 94 b8 85 9c 8c b9 c4 38 94 38
       -0.00020145896 -7.074786e-05 -0.00026819497 7.067763e-05
0000c0 7f 26 69 b8 1a 44 02 3a d0 58 9b 39 f8 51 4f 38
       -5.558738e-05 0.00049692544 0.00029630074 4.9428985e-05
0000d0 6c 49 0f b9 61 03 91 b8 ed 7f b4 b8 9e 6c 21 b9
       -0.00013664895 -6.914768e-05 -8.606897e-05 -0.0001539462
0000e0 95 0d 40 b9 ad d1 62 39 f8 64 ef 38 a6 a7 26 ba
       -0.00018315607 0.0002163115 0.00011415215 -0.0006357379
0000f0 33 a5 6b 39 48 01 a8 b9 f9 cf 8a 37 4a 12 44 b8
       0.00022472888 -0.00032044412 1.6547727e-05 -4.6747075e-05
000100 1f 3d ea b9 7f 0c d2 b9 ee 08 b7 b8 61 f9 a1 39
       -0.00044677497 -0.00040063632 -8.727783e-05 0.00030894115
000110 49 15 0a 39 78 f3 16 ba f5 3e 83 b9 83 11 3f 39
       0.00013168635 -0.00057583256 -0.00025033174 0.00018221703
000120 de 97 d4 38 57 1a b8 38 7a a2 16 38 37 08 53 39
       0.00010137235 8.77871e-05 3.5914105e-05 0.00020125588
000130 44 1c af b8 44 76 fb b5 d9 1d a8 b8 f8 f1 16 b8
       -8.349915e-05 -1.8735377e-06 -8.016424e-05 -3.5988138e-05
000140 10 a3 88 38 ba ae bc 38 2f f5 7b b8 d4 55 94 b7
       6.515358e-05 8.997084e-05 -6.007141e-05 -1.7682942e-05
000150 34 3b 5f 37 10 c5 9c b7 fc a2 a2 b8 4b f1 37 38
       1.330562e-05 -1.8688414e-05 -7.75512e-05 4.385532e-05
000160 8e 3d 2b 37 34 7e c6 b8 a8 ca f0 38 46 21 8e 39
       1.0206726e-05 -9.464883e-05 0.000114818395 0.0002710914
000170 93 56 13 b9 e8 38 54 b8 fe 6e b0 39 18 62 bb 39
       -0.00014051264 -5.0597737e-05 0.00033652032 0.00035740505
000180 bf 9c 15 b9 1e 58 05 b9 f6 5d eb b8 cb 8c 86 b9
       -0.0001426814 -0.00012716695 -0.00011223175 -0.0002566337
000190 91 4c 0c 38 54 f9 e5 b8 ad 85 cb 36 dc 15 83 b8
       3.344991e-05 -0.00010966012 6.0654334e-06 -6.2506384e-05
0001a0 b8 6f be 39 4a a4 6c 38 9d c0 61 b9 d2 8e 79 38
       0.0003632286 5.641979e-05 -0.00021529426 5.9499238e-05
0001b0 82 6b a4 b8 a4 93 fb 39 2d fb 6a b8 86 0f 28 b9
       -7.840154e-05 0.00047984452 -5.6023873e-05 -0.00016027511
0001c0 58 ba a0 37 e7 7a c0 b8 64 65 1d 3a 9e cb 81 39
       1.916026e-05 -9.178166e-05 0.0006004183 0.00024756504
0001d0 c5 d9 8c 39 07 bd 53 b9 59 54 e8 b8 4b 7b 7b 39
       0.00026865132 -0.00020192946 -0.00011078333 0.00023983156
0001e0 d9 41 ab b9 a2 7d a5 37 fd 38 04 39 40 af c3 38
       -0.00032664722 1.9728035e-05 0.00012609731 9.3309674e-05
0001f0 1c 34 d4 b8 56 23 a2 39 e5 03 a2 b8 46 90 75 b8
       -0.00010118654 0.00030925375 -7.7254874e-05 -5.8546917e-05
000200 c9 b5 3c b9 38 d0 99 39 ed 22 88 b9 25 4d 2f b9
       -0.00017996797 0.0002933757 -0.00025965963 -0.00016718039
000210 92 33 5b 39 92 14 d2 38 7a d5 96 b9 fe 20 e0 b8
       0.00020904679 0.00010017412 -0.00028769282 -0.000106872976
000220 6d a6 78 b8 a3 e9 ac 36 90 04 36 37 bd 64 40 b8
       -5.9282804e-05 5.1531983e-06 1.0849108e-05 -4.5870187e-05
000230 14 d3 a6 39 98 58 17 b9 5a d1 00 b9 e4 43 48 b9
       0.00031819253 -0.00014433486 -0.00012285021 -0.00019098778
000240 3b 5e 2a 37 5a 8b 5a 39 8e ca 03 39 7a 54 1d b9
       1.0154729e-05 0.00020842013 0.00012568591 -0.00015004157
000250 91 a4 8b b8 a0 07 00 39 37 20 2c 39 4b 6b 65 b9
       -6.6586894e-05 0.00012209872 0.00016415199 -0.00021879112
000260 1f 31 82 b6 34 59 e5 b8 9a a5 ae 39 21 13 a1 b9
       -3.8800204e-06 -0.00010936186 0.0003331125 -0.00030722565
000270 3a 32 34 b9 2e 74 96 39 98 50 06 39 0f 1a 1e ba
       -0.00017184849 0.0002869679 0.0001280926 -0.0006031105
000280 5a 66 3f b9 57 b8 bd b8 fb a7 30 39 d8 72 a9 38
       -0.00018253308 -9.046558e-05 0.00016847246 8.079939e-05
000290 c8 10 ce b9 16 5c 9a b8 16 37 27 39 94 92 e1 b7
       -0.00039303885 -7.3604446e-05 0.00015946882 -2.6890346e-05
0002a0 ad e2 3c 38 e3 5f 1a b6 ea 5f f3 b8 3f 9d a5 39
       4.50338e-05 -2.3003602e-06 -0.00011605008 0.0003158841
0002b0 31 77 94 b8 ed bb 05 38 94 6d 40 39 60 ef f3 38
       -7.079391e-05 3.188469e-05 0.00018351368 0.0001163173
0002c0 36 9b 8a b8 e7 ca 0d 36 36 f8 63 b8 23 07 17 39
       -6.609263e-05 2.1128742e-06 -5.4352182e-05 0.00014403141
0002d0 7a 4c 97 b9 ce 2e 55 b9 f8 37 5e 39 73 c8 6b 38
       -0.00028857944 -0.00020330699 0.0002119242 5.621505e-05
0002e0 ac 36 a5 b9 61 c6 76 b9 db cc e8 37 ba 9c 17 38
       -0.00031511986 -0.0002353429 2.7751948e-05 3.614717e-05
0002f0 03 0a 89 38 57 2e af 38 18 9f e7 38 4a 33 58 37
       6.534534e-05 8.353282e-05 0.00011044572 1.2886545e-05
000300 70 bf 9b b8 8a 97 f6 b8 30 60 f6 39 ba 06 25 38
       -7.426634e-05 -0.000117584204 0.00046992442 3.934533e-05
000310 7a 3e 25 39 c5 65 a2 b8 e9 b2 95 b6 cd bc 1a 39
       0.000157589 -7.743718e-05 -4.461374e-06 0.00014756918
000320 38 5c 2b b9 03 10 26 b9 24 1c 63 39 64 35 1c 39
       -0.00016342185 -0.00015836958 0.0002165889 0.00014897209
000330 24 7a 08 ba a2 e3 46 b9 32 d8 11 b9 96 70 32 39
       -0.00052061887 -0.00018967551 -0.00013908817 0.00017017344
000340 c0 bb 22 38 de 40 87 b9 06 26 33 b9 97 19 ec b8
       3.8798666e-05 -0.00025797536 -0.00017084935 -0.000112581234
000350 2b ee 5a 39 fb 24 f0 38 2e 22 e1 b9 23 9d a6 39
       0.00020878825 0.0001145098 -0.0004294081 0.00031779063
000360 4d 40 9d 38 6e f6 28 b9 7e 8c 8b b8 34 41 15 b9
       7.49832e-05 -0.00016113531 -6.654205e-05 -0.00014234037
000370 1d 3f 05 38 2a 21 7b b9 5b 46 be 38 8a 73 58 b5
       3.176845e-05 -0.0002394958 9.073011e-05 -8.06344e-07
000380 82 84 76 b9 35 57 34 b9 ea 5c e4 b8 c6 35 26 39
       -0.00023509751 -0.00017198625 -0.00010889194 0.00015851026
000390 25 6e de 38 02 ba c2 b9 27 60 b5 b7 54 84 3c b8
       0.00010606301 -0.0003714115 -2.1621656e-05 -4.4945933e-05
0003a0 0f 13 a8 37 4a c1 f6 b7 2f 7c 9a 39 67 f8 a9 38
       2.0036035e-05 -2.9415492e-05 0.00029465693 8.1048165e-05
0003b0 7e 9a a3 b8 ae 9c b2 37 2a 97 99 b8 60 ee a4 38
       -7.801222e-05 2.1292213e-05 -7.323765e-05 7.86453e-05
0003c0 33 e4 73 38 83 99 97 b7 3e ac 8c b7 81 3f 37 37
       5.814824e-05 -1.8072087e-05 -1.6769507e-05 1.0922436e-05
0003d0 70 67 f7 b8 a2 50 5b 39 05 2b bd b8 a3 8b 9f b3
       -0.000117971445 0.00020915506 -9.020235e-05 -7.429414e-08
0003e0 2c ce e2 b8 f5 dc 99 39 b5 4b 87 b9 06 6d ff b5
       -0.00010814922 0.0002934706 -0.00025805613 -1.903071e-06
0003f0 ba 50 4a 39 e2 94 0a 39 5d 3b a2 b9 b0 81 7b 39
       0.00019294294 0.00013216169 -0.00030943277 0.00023985538

exp_avg_sq f4 [128, 5]
000000 7a 65 1b 33 f4 52 52 33 05 9a 64 33 2b 47 42 33
       3.6181042e-08 4.896988e-08 5.3225467e-08 4.523387e-08
000010 9a 99 60 34 50 97 d1 32 98 3b af 32 20 3b e8 32
       2.0917506e-07 2.4399611e-08 2.0399781e-08 2.7035242e-08
000020 aa 6b 9e 32 ec b8 fa 33 5b 94 6e 33 4e 8b 96 33
       1.844258e-08 1.1675169e-07 5.554862e-08 7.010259e-08
000030 2d c0 97 33 45 ad 79 33 aa 24 8c 34 5b 9b 46 33
       7.066442e-08 5.8132418e-08 2.610371e-07 4.6241762e-08
000040 0f 6d 33 33 77 3c 7f 33 27 06 3f 33 23 01 8d 34
       4.1775873e-08 5.9426807e-08 4.447625e-08 2.6264124e-07
000050 0d f8 03 33 b4 df ef 32 a4 38 28 33 b4 1e 1c 33
       3.0726415e-08 2.792499e-08 3.9167062e-08 3.6349505e-08
000060 95 e9 28 34 be b8 80 33 5c b8 b1 33 06 62 aa 33
       1.5731196e-07 5.994069e-08 8.2757396e-08 7.934072e-08
000070 cd 10 90 33 45 f6 8e 34 f4 9b 1f 34 c9 71 0a 34
       6.7085786e-08 2.6628746e-07 1.4864764e-07 1.2893646e-07
000080 c2 23 0e 34 ea 4b 0c 34 08 c2 3e 35 54 6c 83 32
       1.3237789e-07 1.3066133e-07 7.106287e-07 1.5299669e-08
000090 07 a2 9f 32 32 ff a4 32 6b a1 82 32 d4 1f af 33
       1.8583718e-08 1.9208162e-08 1.5207396e-08 8.154862e-08
0000a0 da d3 b5 33 32 a4 b7 33 90 46 d0 33 e4 67 9d 33
       8.467005e-08 8.5514685e-08 9.69859e-08 7.32978e-08
0000b0 5c 56 dd 34 da 20 5d 33 de 0d 94 33 a2 3e 85 33
       4.1227293e-07 5.148545e-08 6.8943095e-08 6.204688e-08
0000c0 d6 28 78 33 db 34 f2 34 f7 3a 04 33 07 31 d6 32
       5.777914e-08 4.511447e-07 3.0787273e-08 2.4935174e-08
0000d0 5e 0f 16 33 a1 e5 d6 32 0b ed 42 34 cb 49 03 33
       3.4938573e-08 2.5017302e-08 1.8153894e-07 3.056793e-08
0000e0 d9 c4 07 33 f7 34 37 33 c1 39 0b 33 dc ae 4d 34
       3.161117e-08 4.265618e-08 3.2415986e-08 1.9155726e-07
0000f0 d4 b9 84 33 69 a7 a5 33 63 4a 9b 33 5f 22 89 33
       6.180531e-08 7.713863e-08 7.231281e-08 6.385812e-08
000100 1c e3 b7 34 d9 81 58 33 47 ae 24 33 d3 e3 87 33
       3.425165e-07 5.0409515e-08 3.834273e-08 6.3278684e-08
000110 3a 48 3a 33 bf 24 83 34 eb 42 58 33 1e 46 64 33
       4.337219e-08 2.4427388e-07 5.035228e-08 5.3149158e-08
000120 dd c3 7f 33 c9 06 63 33 69 1e 71 34 5c 80 3e 33
       5.954995e-08 5.2858727e-08 2.2455937e-07 4.4354564e-08
000130 98 65 32 33 6d 41 7f 33 fe bd 44 33 29 7a 5c 34
       4.1536254e-08 5.943132e-08 4.5807603e-08 2.0533538e-07
000140 f6 ca ef 31 92 53 e9 31 4c 67 1b 32 24 67 0c 32
       6.9788895e-09 6.7906933e-09 9.045674e-09 8.172524e-09
000150 4d 37 16 33 59 13 bc 31 2d 0b e0 31 1a 34 0c 32
       3.4974892e-08 5.4737197e-09 6.5205286e-09 8.160919e-09
000160 a8 37 a8 31 84 8a f9 32 7b 1d 32 33 a0 0d 6a 33
       4.895771e-09 2.9050405e-08 4.1470667e-08 5.4494762e-08
000170 1b 74 6c 33 b6 d9 25 33 dd d7 79 34 9f a0 56 33
       5.505363e-08 3.8615063e-08 2.3268463e-07 4.997184e-08
000180 7b 13 4d 33 0b 94 57 33 5e 85 35 33 23 f1 94 34
       4.7748e-08 5.0193233e-08 4.2263643e-08 2.7742598e-07
000190 33 85 b2 32 a0 06 db 32 e6 2a ee 32 23 e3 b4 32
       2.07825e-08 2.5497968e-08 2.7726355e-08 2.1058048e-08
0001a0 c3 da 21 34 76 29 3f 33 f9 92 7b 33 2a be 82 33
       1.5073879e-07 4.450836e-08 5.8574162e-08 6.0881874e-08
0001b0 49 e2 6b 33 a2 f3 b2 34 2a a7 0c 33 b6 0d 28 33
       5.4921006e-08 3.333235e-07 3.2748325e-08 3.9128018e-08
0001c0 23 0e 22 33 6b 57 0d 33 82 06 9a 34 54 7d b2 33
       3.773142e-08 3.2908627e-08 2.868947e-07 8.311568e-08
0001d0 eb bd b4 33 25 e9 ae 33 a2 e6 86 33 a4 2a e6 34
       8.416449e-08 8.144915e-08 6.281813e-08 4.2871864e-07
0001e0 b2 75 ce 32 a5 6b b8 32 61 63 f1 32 06 cb b0 32
       2.4035078e-08 2.146937e-08 2.8101285e-08 2.0581421e-08
0001f0 35 9f e0 33 38 85 46 33 a2 23 37 33 f2 ef 75 33
       1.04597724e-07 4.622163e-08 4.2640416e-08 5.7261737e-08
000200 12 9f 7b 33 d4 06 8e 34 da 54 01 33 94 f7 d0 32
       5.8585165e-08 2.645453e-07 3.0112325e-08 2.4326972e-08
000210 b4 f4 04 33 a6 eb c6 32 41 38 17 34 c2 77 86 31
       3.09562e-08 2.3157394e-08 1.4083436e-07 3.913528e-09
000220 b5 13 ab 31 4d 48 ab 31 aa e7 cc 31 64 3c 02 33
       4.9789954e-09 4.9849747e-09 5.9635186e-09 3.032291e-08
000230 f7 c4 b3 33 17 69 ae 33 a3 33 da 33 a4 d1 b2 33
       8.371165e-08 8.121622e-08 1.0160809e-07 8.326904e-08
000240 cb 5e cb 34 58 2d 5c 33 bd 07 55 33 4b 70 66 33
       3.7880667e-07 5.126398e-08 4.9599965e-08 5.3653178e-08
000250 90 8a 2a 33 ca 26 97 34 16 ef 4e 33 e3 1f 7e 33
       3.970723e-08 2.8154165e-07 4.818056e-08 5.9167984e-08
000260 c1 59 75 33 6a 21 4f 33 96 47 94 34 75 57 e6 32
       5.712514e-08 4.8226333e-08 2.7619234e-07 2.6815295e-08
000270 9f c5 b7 32 1f 84 1d 33 c3 55 ef 32 f6 cb 2a 34
       2.1393872e-08 3.6674574e-08 2.7862262e-08 1.5906684e-07
000280 83 08 d3 32 f7 93 d0 32 a9 35 04 33 85 0e cc 32
       2.4567504e-08 2.4281674e-08 3.078245e-08 2.3755328e-08
000290 7f 5d 0e 34 77 00 93 32 b9 3d c9 32 6c ee c9 32
       1.3258794e-07 1.7113264e-08 2.3427548e-08 2.3507901e-08
0002a0 00 44 97 32 01 37 ae 33 09 25 87 33 f9 c0 a5 33
       1.7609636e-08 8.1125116e-08 6.293164e-08 7.718513e-08
0002b0 ce f1 a9 33 30 0a 93 33 25 e3 9c 34 26 9c 42 32
       7.91366e-08 6.847074e-08 2.9222534e-07 1.132779e-08
0002c0 d8 b9 4d 32 a4 8d 4f 32 5b 00 64 32 af ba b2 33
       1.19748265e-08 1.2081191e-08 1.32714275e-08 8.3227285e-08
0002d0 4b 98 13 33 a6 d8 11 33 71 73 28 33 0c f2 19 33
       3.4364614e-08 3.3957484e-08 3.922054e-08 3.584323e-08
0002e0 7d 4a 34 34 b1 24 a9 32 ce 6a a1 32 5d 41 b3 32
       1.6790905e-07 1.9690875e-08 1.8791436e-08 2.0868066e-08
0002f0 bd 7c ae 32 66 e7 e6 33 e7 ad 12 33 17 b8 0d 33
       2.031299e-08 1.0752301e-07 3.4151437e-08 3.299655e-08
000300 cd 3c 1d 33 1c 23 e8 32 3e 3a 4e 34 b0 9d ec 32
       3.660971e-08 2.702432e-08 1.9206433e-07 2.7545724e-08
000310 31 98 03 33 9a af 0d 33 d1 ca e7 32 5b 32 26 34
       3.063923e-08 3.298883e-08 2.698417e-08 1.5478274e-07
000320 15 eb 21 33 34 09 2c 33 f7 d9 3f 33 24 9c 0a 33
       3.769954e-08 4.005524e-08 4.466889e-08 3.2272638e-08
000330 e8 52 68 34 2a 35 a0 32 c1 68 b7 32 20 cc f7 32
       2.1636845e-07 1.8650628e-08 2.135164e-08 2.884741e-08
000340 f8 c7 b6 32 51 49 c5 33 d8 cf 37 33 b6 b7 19 33
       2.1278524e-08 9.1868635e-08 4.279704e-08 3.5790173e-08
000350 9f 18 60 33 6d fd 0b 33 35 46 6c 34 f9 34 93 33
       5.2176457e-08 3.259395e-08 2.2004754e-07 6.8548566e-08
000360 a4 a7 7e 33 5b 74 8e 33 40 60 5a 33 4d 62 eb 34
       5.929145e-08 6.633555e-08 5.084462e-08 4.3843684e-07
000370 fc 30 1c 33 f3 d6 3a 33 97 e9 4a 33 c2 69 28 33
       3.636613e-08 4.3501995e-08 4.724424e-08 3.9211734e-08
000380 8e c8 3b 34 34 1b ba 32 6d ff ba 32 28 79 c9 32
       1.7488694e-07 2.166562e-08 2.1769404e-08 2.3454575e-08
000390 81 8c 9e 32 77 03 05 34 9c 7b ba 31 8d f7 cc 31
       1.8457515e-08 1.2387851e-07 5.4273652e-09 5.9653247e-09
0003a0 98 4b bf 31 89 f0 cf 31 a6 27 82 33 fa 71 ae 32
       5.5674256e-09 6.0518386e-09 6.060809e-08 2.0308097e-08
0003b0 03 82 be 32 35 5a f9 32 0a c8 df 32 99 12 b7 33
       2.2178034e-08 2.9028437e-08 2.6051584e-08 8.5249845e-08
0003c0 33 d7 cc 31 3f 2d b8 31 5e 07 ed 31 06 ce c2 31
       5.9616467e-09 5.3602487e-09 6.8984454e-09 5.6695653e-09
0003d0 ac 5f 24 33 9f ba 20 33 16 2b 2c 33 07 34 3c 33
       3.827124e-08 3.7422634e-08 4.0086057e-08 4.381948e-08
0003e0 22 78 1c 33 20 34 49 34 b7 ca 9c 32 88 11 77 32
       3.643084e-08 1.8738547e-07 1.8252974e-08 1.4381278e-08
0003f0 b3 89 b7 32 3c 0c 89 32 0e 14 c7 33 af be ec 32
       2.1366622e-08 1.5954463e-08 9.2703075e-08 2.7560729e-08

exp_avg f4 [128]
000000 7c 46 c2 b9 82 16 df b7 d1 5f b9 b9 7c ed fa b9
       -0.00037055078 -2.6594153e-05 -0.00035357338 -0.00047860655
000010 44 32 94 39 a3 5d 15 ba 5d ed cb 38 76 9a 7f 38
       0.0002826621 -0.0005697852 9.724007e-05 6.094059e-05
000020 bb ec cd 37 2e 2e 1d ba 4e c6 b2 38 e2 43 69 37
       2.454814e-05 -0.0005995956 8.5246385e-05 1.3903687e-05
000030 05 51 90 39 9f 83 0c ba 37 cb f2 b9 cb fb 03 3a
       0.00027526185 -0.0005360189 -0.00046309244 0.00050347735
000040 b3 b7 41 b8 0d e7 21 b7 40 f7 43 b9 74 65 45 38
       -4.618587e-05 -9.6501435e-06 -0.00018688757 4.7062946e-05
000050 52 88 bf b9 20 0f bc b9 ad 55 01 ba 81 91 8b b9
       -0.00036531925 -0.00035869423 -0.0004933726 -0.00026620555
000060 32 e1 e8 b9 27 95 0f 3a 62 cf e8 b8 25 92 5b b9
       -0.00044418272 0.00054772425 -0.0001110125 -0.0002093991
000070 f1 f6 ef 39 29 27 a5 b9 f7 03 e0 b8 a6 e0 e4 b9
       0.00045769618 -0.0003150043 -0.00010681891 -0.00043654925
000080 c9 9e 66 b6 0c f7 e3 b9 22 b3 56 b9 f3 74 1e 39
       -3.4365096e-06 -0.00043480878 -0.00020475363 0.00015111621
000090 64 1b 45 b9 5d c2 44 b9 1c 7a 43 b9 c0 fb 5f b9
       -0.00018797588 -0.00018764423 -0.00018642138 -0.00021360721
0000a0 56 f3 4a 37 02 b5 30 b9 6e 5c c1 38 8c ce cc b9
       1.2096794e-05 -0.00016852099 9.2201735e-05 -0.00039063802
0000b0 a5 de 2f 39 3b 3c 92 38 98 4c d1 b8 9a 5c b6 39
       0.00016772242 6.973041e-05 -9.980163e-05 0.0003478274
0000c0 c1 dc e5 b8 a9 2b c1 b8 09 9a 9b b9 21 61 74 39
       -0.000109606895 -9.2110895e-05 -0.0002967867 0.00023305837
0000d0 8d 80 d3 b8 a4 9f 39 38 9a b8 1d b9 5f 37 a5 b8
       -0.000100852085 4.4256114e-05 -0.00015041456 -7.878127e-05
0000e0 6d f2 56 39 b3 14 ff 38 82 2f b7 b9 4f 97 5d b9
       0.00020498941 0.00012163203 -0.00034939876 -0.00021132569
0000f0 ef d1 93 b9 64 10 ed 39 43 5a dd b9 b5 4e 56 39
       -0.00028194438 0.00045216375 -0.00042219655 0.00020437951
000100 1d de e1 b9 21 77 bd b9 98 d0 8e b9 aa 58 44 39
       -0.00043080832 -0.00036137647 -0.00027239765 0.00018725047
000110 dc 86 32 39 3b 02 bf 38 a7 43 95 39 e6 a2 72 38
       0.00017025642 9.108005e-05 0.000284699 5.7849007e-05
000120 21 7c 45 39 42 87 96 b9 53 d5 7f b9 57 01 09 3a
       0.00018833626 -0.00028711004 -0.00024398165 0.0005226335
000130 4e 8a dc b9 1d 2e 27 38 88 31 a6 b9 b8 b2 9e b9
       -0.00042064715 3.985885e-05 -0.0003169889 -0.00030269264
000140 38 43 05 39 fc 1c b8 b8 44 8c c7 b7 f0 a9 c0 39
       0.0001270891 -8.7792025e-05 -2.3787965e-05 0.00036747707
000150 6c 66 0f 3a f4 c2 20 b8 89 5b 83 37 ce 44 9c 39
       0.0005470279 -3.8328537e-05 1.5659041e-05 0.00029805902
000160 96 0d 59 ba 36 a3 59 39 4e 97 aa 38 a0 97 f8 b9
       -0.00082799175 0.00020755533 8.1344144e-05 -0.00047415216
000170 d3 6b 06 ba 9e 6f 13 b9 f9 35 86 b8 88 28 8f 39
       -0.00051277614 -0.00014060593 -6.399671e-05 0.00027305284
000180 85 bb 04 b9 f8 e6 47 39 cd 03 ab 39 98 5e e6 38
       -0.00012658357 0.00019064161 0.00032618493 0.00010984874
000190 d6 0e b3 38 5c c9 cc b8 f3 b0 b8 b8 35 76 57 b9
       8.5381485e-05 -9.764984e-05 -8.806763e-05 -0.00020548033
0001a0 bc 80 68 b8 f5 44 dd b8 12 51 56 b9 d2 76 3b b8
       -5.5433004e-05 -0.000105509454 -0.00020438831 -4.4694934e-05
0001b0 8d 7e cb 39 7f 2b ee b5 6c 23 bc 38 38 be ac b9
       0.00038813465 -1.7745041e-06 8.9711364e-05 -0.0003294812
0001c0 46 e9 b0 b9 a8 43 8f b9 c7 29 64 38 e7 e1 1f 3a
       -0.00033743138 -0.00027325493 5.4398344e-05 0.0006099031
0001d0 c7 5c 94 39 80 bb a4 b9 dc e5 23 39 d5 22 95 39
       0.00028297884 -0.00031420216 0.0001563052 0.00028445447
0001e0 d6 af 3c 38 0d 5a 7a b9 73 7f 0b b9 ba d3 04 b9
       4.4986453e-05 -0.00023875404 -0.00013303552 -0.00012667375
0001f0 67 e6 26 b8 c4 08 94 39 ff 82 87 b9 1a 33 e5 37
       -3.9792063e-05 0.0002823529 -0.00025846806 2.7322723e-05
