results/turtle1/Turtle/Turtle-36367.pt (torch, 441304 bytes, 33 tensors)

network_body._body_endoder.seq_layers.0.weight f4 [128, 5]
0.15937267 1.089071 0.3201211 0.0039706226 -0.4313009 0.121141806 0.29466975 0.2813363
0.22938015 0.02339361 -0.22739866 -0.2785098 -0.5234649 -0.9500736 0.4086354 0.23755015
0.14105837 0.13722023 0.44568175 0.071461625 0.39989868 -0.17324916 0.015329519 0.16105409
0.19633462 -0.18080796 0.54127586 -0.025815763 0.37653422 0.53662366 -0.40026155 0.2050782
-0.6813694 0.7647763 -0.4153348 0.4473788 0.018973593 0.34827343 -0.09362856 0.07052452
-0.5930843 -0.49108136 0.10319556 -0.23504724 -0.50058657 -0.32667446 0.7496886 0.6520037
-0.10009107 -0.7547036 -0.16438736 0.5249083 0.04451519 -0.07473231 0.8266984 0.12994257
-0.0967 -0.0610743 0.111092776 0.46680564 -0.35517493 0.317207 0.08877632 0.6735359
-0.33510405 0.43543527 0.12916303 0.1248782 0.95890194 -0.271583 0.07240609 0.5188133
-0.4809155 0.5162155 0.038798615 -0.39531457 0.37600243 0.63159573 0.16994871 0.48275822
0.8731443 0.5817364 -0.40175295 -1.1972395 -0.06662511 -0.20521936 0.5032323 -0.47952202
0.24043693 0.39852598 0.3527896 -0.06295184 0.17798491 -0.42836094 0.710725 -0.16208711
0.39156207 -0.17893656 -0.37468287 0.14047486 0.3994919 0.34713295 0.25813013 -0.068840764
0.35444164 0.10475241 -0.41119978 0.36646107 0.3263787 0.0039844937 -0.57104355 -1.1741974
-0.17099448 0.38973573 -0.75023353 -0.7450685 1.3754113 -0.6967341 -0.4200901 -0.4925162
-0.76772153 0.035831377 0.46794808 -0.67645127 -0.7509161 0.00030091885 -0.24996954 0.14143312
-0.277961 -0.10653579 -0.46919027 0.5628179 0.0030051775 0.28812027 -0.108393386 -0.4900502
-0.7035214 -0.37128606 0.21233542 -0.84222496 0.40448606 -0.11800888 0.59787655 0.54022396
-0.6867144 0.051263783 0.37287757 0.41963515 0.39273694 0.17475432 0.022827946 0.26187494
-0.010962897 -0.38003096 -0.23104095 0.3460501 0.22045818 -0.46166387 0.13013242 -0.11032763
-0.19868214 -0.4527391 0.3381224 -0.25599977 0.3827994 0.013133844 0.3609624 0.9171503
0.26585704 0.3602764 -0.11610418 0.50740916 -0.043932583 -0.4570381 -0.22667502 0.07952486
-0.46490473 0.39890882 0.06503394 0.07536393 0.12114135 -0.52539116 -0.21737313 0.048412602
-0.24950086 -0.555718 0.02320981 0.8112562 0.18580087 -0.5623188 -0.39195445 0.04075224
0.5272149 0.5478283 0.41621038 -0.44127458 0.22531967 0.8651512 -0.34378764 0.58362865
-0.21558699 0.016684838 0.09604989 -0.21056432 0.58679897 -0.5992461 -0.049301174 0.37273028
0.11518341 0.3036107 1.064124 -0.104406655 0.1843434 -0.0025670328 -0.17881235 -0.55918705
0.011680565 -0.17072448 0.15695217 -0.66335756 -0.64187086 -0.25216573 0.31740087 0.33738688
-1.1834791 -0.12125797 0.14385194 -0.53422314 0.2085074 -0.25613037 0.37072545 -0.65796626
0.08734172 -0.3593331 -0.71782273 -0.20242298 -0.23201858 0.98390377 0.33365673 -0.6353699
0.9771023 0.094679154 0.20942329 -0.28127798 0.43776652 0.13787721 0.14394471 0.40033224
0.4903519 -0.38309437 -0.502036 -0.0023384462 1.159591 -0.038162213 0.5568627 0.3865325
00000000: 9732 233e ae66 8b3f eae6 a33e ff1b 823b
00000010: 79d3 dcbe 3219 f83d f4de 963e 500b 903e
00000020: a1e2 6a3e f5a3 bf3c 32db 68be d698 8ebe
00000030: cc01 06bf 0638 73bf a938 d13e 5940 733e
00000040: 9b71 103e 7683 0c3e 6630 e43e 795a 923d
00000050: 85bf cc3e 3a68 31be aa28 7b3c 5deb 243e
00000060: f10b 493e b925 39be 0e91 0a3f 947b d3bc
00000070: 18c9 c03e 2b60 093f 15ef ccbe 0500 523e
00000080: 3a6e 2ebf 61c8 433f c3a6 d4be d60e e53e
00000090: 826e 9b3c e550 b23e 55c0 bfbd 296f 903d
000000a0: 5fd4 17bf 046f fbbe 3258 d33d 39b0 70be
000000b0: 7126 00bf e041 a7be 98eb 3f3f b7e9 263f
000000c0: 8cfc ccbd 4134 41bf 2955 28be 6460 063f
000000d0: 8f55 363d 410d 99bd 82a2 533f aa0f 053e
000000e0: a60a c6bd 0c29 7abd 9c84 e33d 2601 ef3e
000000f0: 7dd9 b5be f568 a23e 5cd0 b53d d96c 2c3f
00000100: c292 abbe 5ff1 de3e 5043 043e 24c0 ff3d
00000110: 997a 753f ed0c 8bbe a549 943d f3d0 043f
00000120: 8e3a f6be b326 043f 4ceb 1e3d ac66 cabe
00000130: 6483 c03e 42b0 213f 0907 2e3e 162c f73e
00000140: 6386 5f3f adec 143f 90b2 cdbe 253f 99bf
00000150: bf72 88bd 0625 52be d5d3 003f e983 f5be
00000160: 1935 763e 990b cc3e d7a0 b43e e5ec 80bd
00000170: ad41 363e 2052 dbbe 13f2 353f 2afa 25be
00000180: d37a c83e 253b 37be 6fd6 bfbe a4d8 0f3e
00000190: 348a cc3e 69bb b13e a229 843e 63fc 8cbd
000001a0: 6079 b53e 6e88 d63d c788 d2be c9a0 bb3e
000001b0: 1c1b a73e 5b90 823b e92f 12bf 1a4c 96bf
000001c0: 2d19 2fbe 718b c73e 4e0f 40bf cfbc 3ebf
000001d0: 7a0d b03f 2a5d 32bf 0d16 d7be 152b fcbe
000001e0: 6689 44bf ecc3 123d e496 ef3e e92b 2dbf
000001f0: 0a3c 40bf a5c4 9d39 04f8 7fbe d8d3 103e
00000200: e750 8ebe 702f dabd b539 f0be d514 103f
00000210: 83f2 443b 8084 933e 5afd ddbd dce7 fabe
00000220: fa19 34bf 3519 bebe 756e 593e 0e9c 57bf
00000230: cc18 cf3e a4ae f1bd 700e 193f 1e4c 0a3f
00000240: 84cc 2fbf f9f9 513d cfe9 be3e 6bda d63e
00000250: d114 c93e ccf2 323e ac01 bb3c 7914 863e
00000260: b99d 33bc 6b93 c2be 0096 6cbe 7b2d b13e
00000270: cabf 613e 355f ecbe 6f41 053e 74f3 e1bd
00000280: 5573 4bbe 6bcd e7be 611e ad3e 6712 83be
00000290: 48fe c33e 562f 573c 10d0 b83e 5dca 6a3f
000002a0: 6a1e 883e 2676 b83e 07c8 edbd 91e5 013f
000002b0: a7f2 33bd e600 eabe 7f1d 68be eedd a23d
000002c0: fe07 eebe c73d cc3e 8430 853d 6758 9a3d
000002d0: f518 f83d 0980 06bf 1097 5ebe 4b4c 463d
000002e0: 277d 7fbe 8943 0ebf 8022 be3c 7cae 4f3f
000002f0: 9542 3e3e 20f4 0fbf 41ae c8be d2eb 263d
00000300: 8ef7 063f 7a3e 0c3f 8719 d53e beee e1be
00000310: 33ba 663e 8d7a 5d3f ef04 b0be b068 153f
00000320: d6c2 5cbe a4ae 883c ceb5 c43d 2c9e 57be
00000330: 7538 163f 3168 19bf 07f0 49bd 81d6 be3e
00000340: 48e5 eb3d dd72 9b3e 3735 883f 28d3 d5bd
00000350: 84c4 3c3e aa3b 28bb 961a 37be e226 0fbf
00000360: d75f 3f3c 66d2 2ebe 12b8 203e cdd1 29bf
00000370: a651 24bf de1b 81be 5e82 a23e f9bd ac3e
00000380: 3e7c 97bf 1956 f8bd ec4d 133e d9c2 08bf
00000390: f782 553e 8523 83be bacf bd3e 7a70 28bf
000003a0: 37e0 b23d 82fa b7be 3bc3 37bf f847 4fbe
000003b0: 4796 6dbe 1ee1 7b3f 0ed5 aa3e 9aa7 22bf
000003c0: 6023 7a3f 25e7 c13d 0f73 563e ab03 90be
000003d0: ef22 e03e af2f 0d3e 3e66 133e 59f8 cc3e
000003e0: 670f fb3e f224 c4be 6e85 00bf 9e40 19bb
000003f0: 7a6d 943f fb4f 1cbd 8e8e 0e3f 96e7 c53e

network_body._body_endoder.seq_layers.0.bias f4 [128]
0.00884518 0.0010963539 0.009622202 -0.0008877161 0.00876209 0.0051990175 -0.0049538943 0.013241786
-0.004446106 0.0067847334 0.0010335847 -0.0018478432 -0.008822114 0.0068055596 -0.008409268 0.0012457652
-0.0018784791 -0.004230151 0.0022215066 0.009100469 -0.0021145178 0.0008281309 -0.0049818503 0.012042757
0.014804797 0.011962212 0.0005021329 0.0016839256 -0.0003743517 -0.001706191 0.008758644 -0.0010410561
0.0079134405 6.842582e-05 -0.00230124 0.00058041717 -0.0015034645 0.008247013 0.0036901196 0.005846275
0.012326346 0.009572437 0.0051604942 0.0017238791 -0.0037223285 -0.003679017 0.0029752569 0.008132012
-0.007981803 0.004648373 0.010559706 0.004181407 -0.0066114254 -0.0018153437 0.002647677 0.0027252482
-0.004104134 -0.007122873 0.003968199 0.008124545 -0.00083858654 -0.0024750975 0.002294782 -0.010242236
0.0025887906 -4.522049e-06 0.00171115 -0.008196369 -0.005231977 -0.0011066531 0.006791577 0.0038317083
-0.009038885 0.0048178206 -0.0057508852 -0.0049703624 -0.0064679235 0.0067516766 -0.0032180157 0.0070339455
0.0069897524 -0.005084712 -0.0022839394 0.0022390287 -0.003923714 -0.0013107233 0.01046286 0.0049157552
0.0046802927 -0.004114903 0.0025211514 0.007115194 0.0062488476 0.0067136046 -0.007559699 -0.0039339107
0.0072820345 0.004615345 0.005148936 0.0048603215 -0.0029252018 -0.0038700996 0.0015175351 -1.3346761e-06
0.004350136 -0.00877638 0.0044226064 -0.0032122266 0.000589026 0.006931826 0.007466561 0.004374254
0.0112528205 -0.0033774911 -0.0077306014 0.0024010928 -0.008150071 -0.0067309807 -0.007901236 0.0028312579
-0.0006133447 0.006185046 0.005270745 -0.0021330365 0.0073538003 0.0018736469 -0.008267908 0.008513746
00000000: 60eb 103c 88b3 8f3a 71a6 1d3c 9eb5 68ba
00000010: de8e 0f3c 855c aa3b 4754 a2bb 13f4 583c
00000020: a4b0 91bb 7852 de3b 5979 873a 5433 f2ba
00000030: a18a 10bc 2c01 df3b 07c7 09bc f248 a33a
00000040: 4d37 f6ba 149d 8abb b296 113b 221a 153c
00000050: b993 0abb ed16 593a ca3e a3bb fc4e 453c
00000060: d28f 723c 27fd 433c 92a1 033a 2bb7 dc3a
00000070: a244 c4b9 45a2 dfba 6a80 0f3c 0c74 88ba
00000080: 60a7 013c d57f 8f38 67d0 16bb 2327 183a
00000090: e60f c5ba 7b1e 073c efd5 713b 1c92 bf3b
000000a0: 71f4 493c b6d5 1c3c 5d19 a93b c9f3 e13a
000000b0: 4ff2 73bb aa1b 71bb 87fc 423b 213c 053c
000000c0: 1cc6 02bc 6151 983b 9e02 2d3c 2f04 893b
000000d0: a8a4 d8bb d4f0 edba a684 2d3b 149a 323b
000000e0: f97b 86bb fd66 e9bb aa07 823b d01c 053c
000000f0: 97d4 5bba 3f35 22bb 0e64 163b 0dcf 27bc
00000100: b3a8 293b 1bbc 97b6 ab48 e03a 104a 06bc
00000110: 0171 abbb 1e0d 91ba e18b de3b 661d 7b3b
00000120: d517 14bc cfde 9d3b ec71 bcbb 6cde a2bb
00000130: e0f0 d3bb 2b3d dd3b 58e5 52bb 037d e63b
00000140: 4b0a e53b a89d a6bb 25ae 15bb abbc 123b
00000150: 8092 80bb 93cc abba 6a6c 2b3c 5814 a13b
00000160: 245d 993b 4fd6 86bb e739 253b 9326 e93b
00000170: 22c3 cc3b ccfd db3b 5ab7 f7bb 09e8 80bb
00000180: 229e ee3b 523c 973b 68b8 a83b 5543 9f3b
00000190: beb4 3fbb 7fa1 7dbb 07e8 c63a 1f23 b3b5
000001a0: 968b 8e3b ceca 0fbc 83eb 903b 3884 52bb
000001b0: de68 1a3a 5f24 e33b 0eaa f43b e755 8f3b
000001c0: c05d 383c e658 5dbb fc50 fdbb a75b 1d3b
000001d0: e087 05bc 8f8f dcbb 3074 01bc a08c 393b
000001e0: dec8 20ba edab ca3b 37b6 ac3b 6aca 0bbb
000001f0: 26f8 f03b 2895 f53a 1f76 07bc 3d7d 0b3c

network_body._body_endoder.seq_layers.2.weight f4 [128, 128]
-0.07541248 -0.24980617 0.036373526 -0.16798845 0.046034083 0.17896013 -0.071771115 0.07611766
0.025510395 -0.027979927 0.034916352 -0.044256147 -0.024545003 0.10769533 -0.077679284 0.016712649
-0.08949195 0.050256073 0.031600486 -0.0096383635 -0.0069306623 0.15953428 -0.012400259 -0.021979991
0.04483656 -0.063704446 0.11206597 0.11907064 0.031869292 0.10762318 -0.007714011 0.09052519
-0.124422505 -0.065618515 0.085252 0.111585945 -0.10624809 -0.0727594 0.038564987 0.06561853
-0.09083574 -0.010936242 -0.08453818 0.05167513 0.26702717 0.059152488 -0.14041758 -0.036462307
0.08474782 0.090165734 -0.10181701 0.051759697 0.14086576 0.06189985 -0.105850816 -0.1854519
0.06314095 0.17867166 -0.11129343 -0.0045778705 0.04935949 -0.10249607 0.063149825 0.02983909
0.17379391 0.12898543 -0.060770076 0.07526692 -0.17989579 0.11728223 0.0840059 -0.042657487
0.07126634 0.087320425 -0.03754123 0.21917641 -0.058874622 -0.02351569 0.19941276 0.08500202
-0.1102536 -0.10500822 -0.009351826 0.11874364 0.04814537 -0.009049761 -0.046211597 0.008916869
-0.08429433 -0.011331882 0.09779674 0.1630445 -0.11438499 -0.09015079 0.0329946 -0.032619093
-0.31468618 -0.10255045 0.08961288 0.029769689 0.12454978 -0.11317051 0.05879241 -0.07428854
0.08609428 -0.1567186 -0.048381187 0.11191863 -0.025267236 -0.053009715 0.1464843 0.0739534
0.11940372 0.15197985 0.042280067 0.15702075 0.02575038 0.081602894 0.07121716 -0.16087426
0.07675163 0.06056677 -0.19566539 -0.08116062 0.11165273 0.07268486 0.18133245 -0.058215465
0.11621579 -0.054059643 -0.06048815 0.07863088 0.0065539964 -0.05162239 0.061436184 -0.006309077
-0.01804814 -0.056636382 0.031566616 -0.011361201 -0.061016552 0.048147805 -0.05236141 -0.072078094
0.0450566 -0.20315011 -0.088323265 -0.05940804 0.11508888 0.03857578 -0.020528954 0.007414005
-0.0018615327 -0.020006582 0.09126784 -0.10806149 0.046737686 0.161154 0.049988806 -0.03806381
0.013486708 -0.07800844 0.024785958 -0.05440699 0.0765601 -0.18798761 0.016539697 -0.018757243
0.114997156 0.040649656 -0.12940927 0.03397759 0.14948438 -0.20651412 -0.02453685 -0.08145431
0.010275129 -0.07660396 -0.04753748 -0.10035293 0.03086152 0.04119038 0.0046062646 0.21714546
-0.0114734825 0.065971464 -0.08777702 0.06876259 0.0072575514 0.0010144446 -0.07919068 0.06734601
-0.023073882 0.014179886 -0.16075408 -0.05036109 -0.17589681 0.26114744 0.036088873 0.0052957777
0.17990671 0.044333585 -0.04558703 0.061175197 -0.07530846 0.048163116 -0.07277403 -0.055555634
0.07895412 -0.063350685 -0.026236963 -0.109179094 -0.032584563 0.094674215 -0.0027150484 0.10337982
0.17504272 0.059876896 -0.083879866 0.06954203 -0.07071691 0.14576082 0.046929333 0.04378013
-0.04723014 0.08139484 0.082153976 0.11606782 -0.034601208 0.0003478504 0.035497475 0.07094856
0.11502654 0.033586223 -0.09972336 -0.06350148 0.12216001 -0.0035137408 0.08893864 -0.06084738
-0.074677914 0.1381392 -0.05517807 -0.078128725 -0.011066253 -0.013426762 0.043216575 -0.03715523
-0.08505262 -0.018495988 0.18912616 -0.009491669 0.13041191 -0.019961797 -0.12282946 0.03961124
00000000: dc71 9abd 30cd 7fbe 68fc 143d 2a05 2cbe
00000010: 3c8e 3c3d 5341 373e bcfc 92bd 93e3 9b3d
00000020: 2dfb d03c 2936 e5bc 7304 0f3d ef45 35bd
00000030: 9a12 c9bc 5f8f dc3d 5116 9fbd f7e8 883c
00000040: 8e47 b7bd 50d9 4d3d 836f 013d 3aea 1dbc
00000050: 9c1a e3bb f45c 233e 752a 4bbc 620f b4bc
00000060: 8aa6 373d 7a77 82bd d882 e53d 4fdb f33d
00000070: 6089 023d 8b69 dc3d d0c5 fcbb 4565 b93d
00000080: 3ad1 febd 0063 86bd 9a98 ae3d 2c87 e43d
00000090: 9998 d9bd e102 95bd 52f6 1d3d 0263 863d
000000a0: 1708 babd ec2d 33bc 5a22 adbd 4da9 533d
000000b0: c9b7 883e e149 723d a0c9 0fbe 8059 15bd
000000c0: 4490 ad3d d0a8 b83d 7085 d0bd fa01 543d
000000d0: 1d3f 103e b28a 7d3d 50c8 d8bd 1ae7 3dbe
000000e0: 0b50 813d b4f5 363e cfed e3bd f601 96bb
000000f0: 2d2d 4a3d 76e9 d1bd b254 813d 1b71 f43c
00000100: 08f7 313e c214 043e 0bea 78bd 8b25 9a3d
00000110: 9a36 38be aa31 f03d 490b ac3d 9eb9 2ebd
00000120: 16f4 913d 0dd5 b23d d5c4 19bd c86f 603e
00000130: 8426 71bd faa3 c0bc dc32 4c3e 8a15 ae3d
00000140: a4cc e1bd 8d0e d7bd 6738 19bc de2f f33d
00000150: 1434 453d 7345 14bc 5f48 3dbd 0f18 123c
00000160: 81a2 acbd 5ca9 39bc a849 c83d 23f5 263e
00000170: ad42 eabd faa0 b8bd 5825 073d 999b 05bd
00000180: 8c1e a1be f805 d2bd f586 b73d 90df f33c
00000190: f413 ff3d f1c5 e7bd 4fd0 703d 9724 98bd
000001a0: 3352 b03d d77a 20be 5a2b 46bd 9835 e53d
000001b0: 3cfd cebc b720 59bd fbff 153e e174 973d
000001c0: f089 f43d 9ba0 1b3e dd2d 2d3d 0cca 203e
000001d0: 76f2 d23c 6b1f a73d 4dda 913d 39bc 24be
000001e0: f52f 9d3d dd14 783d 825c 48be 8a37 a6bd
000001f0: 30aa e43d cddb 943d 37af 393e 5773 6ebd
00000200: 8b02 ee3d a56d 5dbd 6cc2 77bd 3a09 a13d
00000210: e8c2 d63b 0072 53bd 82a4 7b3d 60bc cebb
00000220: b1d9 93bc 8dfb 67bd ff4b 013d 5524 3abc
00000230: 7eec 79bd a236 453d eb78 56bd ae9d 93bd
00000240: 458d 383d 9506 50be d4e2 b4bd d855 73bd
00000250: b8b3 eb3d a301 1e3d 562c a8bc 2ff1 f23b
00000260: acfe f3ba d8e4 a3bc a2ea ba3d 584f ddbd
00000270: 0470 3f3d 8e05 253e 10c1 4c3d cce8 1bbd
00000280: 5af7 5c3c e4c2 9fbd ec0b cb3c ddd9 5ebd
00000290: 8bcb 9c3d d37f 40be 427e 873c caa8 99bc
000002a0: a183 eb3d 4180 263d dd83 04be 162c 0b3d
000002b0: 6f12 193e 7078 53be 8101 c9bc 84d1 a6bd
000002c0: 0459 283c 89e2 9cbd a9b6 42bd d685 cdbd
000002d0: 4cd1 fc3c 3eb7 283d 26f0 963b 615b 5e3e
000002e0: 46fb 3bbc 0c1c 873d 70c4 b3bd 67d3 8c3d
000002f0: c1d0 ed3b 1df7 843a b92e a2bd b4ec 893d
00000300: 7005 bdbc c152 683c b89c 24be 6e47 4ebd
00000310: 4b1e 34be 1eb5 853e edd1 133d 3488 ad3b
00000320: 7739 383e 2297 353d 77b9 3abd d892 7a3d
00000330: 523b 9abd b046 453d 8d0a 95bd 4e8e 63bd
00000340: b3b2 a13d 01be 81bd e6ee d6bc 4a99 dfbd
00000350: 6477 05bd 8ee4 c13d f4ee 31bb cdb8 d33d
00000360: 663e 333e 7a41 753d 35c9 abbd 0d6c 8e3d
00000370: 07d4 90bd 5342 153e f938 403d cb52 333d
00000380: 6474 41bd 56b2 a63d 5840 a83d f7b4 ed3d
00000390: ffb9 0dbd b15f b639 cd65 113d 7b4d 913d
000003a0: 0993 eb3d b591 093d c33b ccbd 100d 82bd
000003b0: 072f fa3d ca46 66bb 7625 b63d 1a3b 79bd
000003c0: bcf0 98bd 5d74 0d3e 6602 62bd f401 a0bd
000003d0: 3b4f 35bc ecfb 5bbc dd03 313d 1530 18bd
000003e0: 1130 aebd e684 97bc 4aaa 413e f282 1bbc
000003f0: b38a 053e ec86 a3bc 038e fbbd 653f 223d

network_body._body_endoder.seq_layers.2.bias f4 [128]
-0.00013696289 -0.009052896 -0.00337796 0.0058100857 -0.0060082623 -0.009858401 0.0030164497 0.0007005356
0.002566112 -0.008328107 -0.007939166 -0.0063793054 0.0122417165 0.008209351 -0.00465413 0.0013561333
-0.0033133358 -0.008802773 -0.0059757493 -0.0025599336 0.0030875034 0.00591864 -0.000688137 -0.007438081
0.002818576 0.005356356 -0.0018786896 -0.0066019236 0.003079667 0.00261879 0.0027837167 -0.0073519982
-0.00042507309 -0.0057964586 0.007982579 -0.0004010966 0.006408748 -0.01082825 0.004406119 -0.0048449957
0.0027383314 -0.0026684343 -0.0040091514 0.0018515734 0.0067342347 0.007054713 0.0011958719 0.003952169
-0.0011264445 -0.0034387878 -0.0062063755 -0.005408316 -0.0022779028 0.008806378 0.0020732556 -0.004662911
-0.0090783015 0.0032512012 0.0019234603 0.0055948645 0.008185746 0.0022107668 0.004409361 0.009128889
0.007852059 0.0077338642 -0.0054745213 -0.0016759577 -0.009600708 0.009472722 0.009346271 0.0062933406
-0.0025163568 -0.0035231176 0.0013128225 -0.0052116634 -0.004562591 -0.010751444 -0.0020840862 0.001017485
-0.0019148949 0.0053369277 0.0010640437 0.0052346494 -0.0075383107 0.008418043 -0.002209877 0.010485138
-0.006462606 0.0074033304 -0.0085065635 0.007980329 0.0027818976 -0.007368587 0.0035128968 -0.009763535
0.003491745 0.007894355 0.001417622 -0.0031304746 -0.0017618227 0.0017870028 -0.008544601 0.004602413
0.0025288304 0.0055256635 -0.005442067 -0.004306063 -0.005124916 0.008805609 0.008052419 0.011746817
0.0021794243 0.0017162776 0.0124816215 -0.0046675736 -0.0021535538 -0.0029318973 -0.007629949 0.010034683
0.0047755362 0.0024654833 -0.009566427 0.012086917 0.0031085014 0.009011208 0.008878859 -0.008281842
00000000: b29d 0fb9 9952 14bc c460 5dbb 8862 be3b
00000010: f5e0 c4bb 2185 21bc a1af 453b 26a4 373a
00000020: 372c 283b 9d72 08bc 4713 02bc 7e09 d1bb
00000030: 7b91 483c 8480 063c ac81 98bb 48c0 b13a
00000040: 8d24 59bb 8239 10bc 38d0 c3bb 8fc4 27bb
00000050: b657 4a3b 27f1 c13b 1864 34ba 25bb f3bb
00000060: dcb7 383b 5f84 af3b 5d3e f6ba f354 d8bb
00000070: 3dd4 493b 01a0 2b3b 046f 363b 08e9 f0bb
00000080: 58dc deb9 38f0 bdbb 5dc9 023c 464a d2b9
00000090: 7a00 d23b f968 31bc 3561 903b c5c2 9ebb
000000a0: 9475 333b e6e0 2ebb 335f 83bb 7eb0 f23a
000000b0: dbaa dc3b 392b e73b cdbe 9c3a 3281 813b
000000c0: 35a5 93ba 495d 61bb da5e cbbb 3e38 b1bb
000000d0: de48 15bb a048 103c 75df 073b 55cb 98bb
000000e0: 28bd 14bc 1b12 553b 9e1c fc3a 2055 b73b
000000f0: 821d 063c 83e2 103b 677c 903b 5691 153c
00000100: eca5 003c 5b6c fd3b 9d63 b3bb cfab dbba
00000110: 4a4c 1dbc 7a33 1b3c 1a21 193c 5e38 ce3b
00000120: 76e9 24bb 1be4 66bb 0313 ac3a 9ac6 aabb
00000130: ca81 95bb d326 30bc 2a95 08bb 225d 853a
00000140: 36fd faba 65e1 ae3b 6277 8b3a 6c87 ab3b
00000150: ef03 f7bb d5eb 093c 95d3 10bb dbc9 2b3c
00000160: 45c4 d3bb a397 f23b 1d5f 0bbc edbf 023c
00000170: 7f50 363b 3074 f1bb a138 663b 3cf7 1fbc
00000180: c3d5 643b 5357 013c 80cf b93a a628 4dbb
00000190: f6ec e6ba dd39 ea3a a7fe 0bbc d7cf 963b
000001a0: bcba 253b a010 b53b 5e53 b2bb e019 8dbb
000001b0: e9ee a7bb 6745 103c 4bee 033c b975 403c
000001c0: acd4 0e3b b8f4 e03a b77f 4c3c 72f2 98bb
000001d0: a322 0dbb 1325 40bb a704 fabb 8368 243c
000001e0: 1a7c 9c3b f293 213b 81bc 1cbc 3408 463c
000001f0: 00b8 4b3b bfa3 133c a278 113c 90b0 07bc

action_model._discrete_distribution.branches.0.weight f4 [4, 128]
0.0059060007 0.0021542273 -0.019229416 -0.004332989 -0.012634558 0.002128628 0.016190026 -0.011145626
-0.0012692747 0.0083278045 0.0009742552 0.012095251 -0.004233236 -0.015472541 0.018737802 -0.0033254304
0.009070601 0.0022033902 0.0037521245 -0.014267252 0.0028610898 -0.0019229569 0.011272522 0.011734356
-0.011857054 -0.012200391 0.005116573 -0.0049066814 -0.0006704396 0.0067714634 0.006289418 0.002716895
0.008428924 -0.0055974806 0.0036618127 0.0008203246 0.008109181 -0.002785399 -0.0011793955 -0.019996684
-0.021792648 0.0012125035 0.0024168876 0.0026214884 0.020078678 -0.0055293418 0.01000166 -0.0029173372
0.022063583 -0.015515809 0.008169077 0.01542874 -0.0067037772 -3.3253164e-05 0.018111348 -0.012468571
0.010388501 0.008531533 0.010290488 0.01872919 -0.0044826916 -0.0026808092 -0.008315165 0.009366605
-0.0011137001 0.0028342828 -0.01100417 -0.009245014 -0.011638528 -0.008090991 -0.0087817805 0.0103149805
-0.005401755 -0.00041435368 -0.0078067738 -0.011509981 -0.0069546835 0.00760155 0.0050567472 0.0032203987
0.012282937 -0.006597983 0.0033491114 0.008542712 0.006743968 -0.007374153 0.0004382733 -0.0005072068
-0.0032873775 0.012846323 -0.0034728248 -0.0029087686 -0.0068256906 0.009546041 -0.009849844 -0.0031573523
0.010641416 -0.006064829 0.009961899 0.015558071 -0.0070413863 -0.0017438421 0.00063797686 0.003458103
0.0018016646 0.008703205 -0.005654585 -0.0011828131 0.009009224 -0.0094873775 0.0019429997 0.0052805864
0.007570022 -0.014725869 -0.0012546642 0.0108994655 0.0107093295 0.0004169398 0.009073926 -0.012484924
0.004641256 0.005178677 -0.0017286419 -0.0027691303 -0.011045158 -0.0066808444 0.0018746984 0.0003189315
-0.008310519 -0.003529878 0.0021805381 0.008051622 -0.0032070966 -0.018600594 0.0020931882 -4.9707483e-05
0.016844833 -0.012950569 -0.017252633 -0.010555651 0.004745208 0.006852041 -0.020582907 0.004558243
-0.020572178 -0.011094469 -0.015793867 0.0024922423 0.0027544738 0.0016563619 -0.0004502509 -0.00017298822
0.0070768152 0.0061829532 -0.004122681 -0.015390028 0.007767609 0.002076265 0.011008156 -0.0048852693
-0.005619838 -0.005576241 0.019765846 0.0078454465 0.0020288462 -0.008953544 0.001372423 -0.010499072
0.007476582 0.0055744597 -0.0074925395 -0.0055909883 0.0066595213 0.0074512535 -0.0020959848 0.01472321
0.0034908552 0.000330384 -0.009181388 -0.012991763 0.005999855 0.015133399 0.0015220961 -0.00707493
0.010121655 0.0068557197 0.0021447064 0.005021793 0.01466368 0.0013825418 0.0048068105 0.009296825
0.013428823 0.0011797259 -0.0030387463 0.000387055 -0.014357265 0.007623666 0.007325948 0.012544761
0.0076302015 -0.016442096 -0.009584007 -0.012874274 0.0095709 -0.0003769629 -0.008225624 0.003017962
0.0005204498 -0.0024632567 0.008174584 0.00085975404 -0.015264764 0.0147814695 -0.005663276 0.01874767
-0.0053299065 0.0025274653 -0.020956168 -0.0032777295 0.0023145378 -0.007528069 0.0014398962 -0.014586964
-0.004643174 0.008503974 0.0010283104 0.0011060114 -0.0076906695 0.00523341 -0.0066573406 0.0066592917
-0.0056106197 0.019540085 -0.005853018 0.002102263 -0.002131743 0.009971934 0.010718641 0.008933346
-0.0023137848 0.0024321044 0.018625012 -0.005453791 -0.016361529 -1.7669807e-05 -0.009177589 7.274126e-05
0.006209047 0.00955961 -0.020195521 0.016423453 -0.0034627733 0.011530781 -0.010302307 -0.013470885
00000000: 2087 c13b f02d 0d3b 0287 9dbc bffb 8dbb
00000010: 2d01 4fbc 7480 0b3b f2a0 843c 259c 36bc
00000020: cb5d a6ba 5871 083c 2965 7f3a 292b 463c
00000030: f5b6 8abb 8a80 7dbc 0580 993c 77ef 59bb
00000040: dc9c 143c c166 103b 34e6 753b 31c1 69bc
00000050: 1f81 3b3b ba0b fcba 62b0 383c 7541 403c
00000060: 1744 42bc 26e4 47bc eda8 a73b 3ac8 a0bb
00000070: 71c0 2fba 27e3 dd3b 7617 ce3b ef0d 323b
00000080: 7819 0a3c 126b b7bb 06fb 6f3b 0d0b 573a
00000090: 5fdc 043c 3e8b 36bb f295 9aba 16d0 a3bc
000000a0: 7f86 b2bc deec 9e3a a564 1e3b 47cd 2b3b
000000b0: 0a7c a43c 7b2f b5bb 01de 233c cc30 3fbb
000000c0: b0be b43c 0536 7ebc 98d7 053c d3c8 7c3c
000000d0: 5cab dbbb 5079 0bb8 405e 943c fa48 4cbc
000000e0: 8834 2a3c d8c7 0b3c 6f99 283c f56d 993c
000000f0: 8be3 92bb 84b0 2fbb 543c 08bc 6476 193c
00000100: 93f9 91ba 60bf 393b d64a 34bc 6678 17bc
00000110: 86af 3ebc 1390 04bc 75e1 0fbc 2a00 293c
00000120: 3501 b1bb 9c3d d9b9 f7cf ffbb 5c94 3cbc
00000130: 1de4 e3bb 6c16 f93b 12b3 a53b 530d 533b
00000140: 5f3e 493c e533 d8bb c47c 5b3b bbf6 0b3c
00000150: 81fc dc3b e1a2 f1bb 0cc8 e539 12f6 04ba
00000160: 0b71 57bb 6279 523c 5598 63bb 0aa1 3ebb
00000170: 0baa dfbb ff66 1c3c 3d61 21bc 95eb 4ebb
00000180: 5559 2e3c 79bb c6bb 3c37 233c 48e7 7e3c
00000190: 6ebb e6bb a291 e4ba e73d 273a 57a1 623b
000001a0: d525 ec3a e397 0e3c 194a b9bb 9f08 9bba
000001b0: 6d9b 133c f270 1bbc 40ac fe3a c508 ad3b
000001c0: f20d f83b c544 71bc 8b73 a4ba ac93 323c
000001d0: 2f76 2f3c b698 da39 ceaa 143c 918d 4cbc
000001e0: ad15 983b e4b1 a93b 9993 e2ba 4c7a 35bb
000001f0: c0f6 34bc fcea dabb 71b8 f53a 4336 a739
00000200: d828 08bc 8755 67bb 5ce7 0e3b f3ea 033c
00000210: 272e 52bb 4660 98bc df2d 093b 017d 50b8
00000220: 2dfe 893c a02e 54bc 6555 8dbc 9cf1 2cbc
00000230: b17d 9b3b 1687 e03b 7c9d a8bc 505d 953b
00000240: fc86 a8bc 93c5 35bc 2462 81bc e354 233b
00000250: 6784 343b 481a d93a a70f ecb9 2c64 35b9
00000260: a1e4 e73b 5f9a ca3b 8e17 87bb 7526 7cbc
00000270: 6d87 fe3b f211 083b 8e5b 343c 9c14 a0bb
00000280: 9e26 b8bb e6b8 b6bb fceb a13c 308a 003c
00000290: 64f6 043b e3b1 12bc e0e2 b33a 4d04 2cbc
000002a0: 1efe f43b f5a9 b63b fa83 f5bb 9c34 b7bb
000002b0: 1d38 da3b a529 f43b ca5c 09bb 9e39 713c
000002c0: d5c6 643b 6437 ad39 886d 16bc 67db 54bc
000002d0: 6f9a c43b 13f2 773c 1281 c73a d0d4 e7bb
000002e0: 4cd5 253c f2a5 e03b 348e 0c3b da8d a43b
000002f0: ef3f 703c 6836 b53a 7382 9d3b b651 183c
00000300: 9104 5c3c 08a1 9a3a b425 47bb a5ed ca39
00000310: bc3a 6bbc f2cf f93b 820e f03b 8b88 4d3c
00000320: c506 fa3b 93b1 86bc 3d06 1dbc 9eee 52bc
00000330: 44cf 1c3c 1ba3 c5b9 c5c4 06bc 00c9 453b
00000340: cb6e 083a 976e 21bb b1ee 053c 1e61 613a
00000350: 1019 7abc fa2d 723c 0193 b9bb b794 993c
00000360: 7fa6 aebb d5a3 253b 45ac abbc 2dcf 56bb
00000370: 80af 173b 05ae f6bb e6ba bc3a 29fe 6ebc
00000380: c425 98bb 4154 0b3c 5fc8 863a 96f7 903a
00000390: 0302 fcbb 067d ab3b d225 dabb 3036 da3b
000003a0: 4ad9 b7bb 8712 a03c acca bfbb 1fc6 093b
000003b0: b6b4 0bbb 5361 233c 3d9d 2f3c 2b5d 123c
000003c0: dea2 17bb f163 1f3b 7b93 983c b7b5 b2bb
000003d0: 9d08 86bc 9f39 94b7 995d 16bc ab8c 9838
000003e0: 4375 cb3b e99f 1c3c 1471 a5bc 7a8a 863c
000003f0: b2ef 62bb 9aeb 3c3c 02cb 28bc fdb4 5cbc

action_model._discrete_distribution.branches.0.bias f4 [4]
0.0014771523 0.010403293 -0.005499689 -0.0043609026
00000000: 029d c13a 9372 2a3c bc36 b4bb e7e5 8ebb

exp_avg f4 [128, 5]
-2.6380983e-06 -1.5266528e-06 -1.8046034e-05 1.5462398e-05 2.0446258e-05 -6.158128e-06 2.4560525e-06 -1.3879186e-05
-4.168483e-06 4.9801547e-06 8.005716e-06 -6.9401663e-06 -3.447521e-05 1.6630414e-05 3.3675267e-05 -1.713282e-05
1.3927959e-05 1.636189e-05 -1.16134115e-05 -2.5862777e-05 -4.7958697e-06 1.099104e-05 -8.775339e-06 1.2864494e-06
1.9797212e-06 -9.519684e-06 1.2991246e-05 5.195123e-07 -3.7140887e-06 -1.9718564e-05 -4.0454447e-06 1.1684565e-05
7.227703e-06 -8.513825e-06 2.1696321e-06 2.3674068e-06 -4.3125438e-06 -2.2366268e-05 1.10470755e-05 2.3880397e-05
1.0102834e-05 -1.7998596e-05 -1.6356773e-05 1.8050878e-05 1.4373769e-05 -2.6565858e-05 1.8090404e-05 -3.488972e-06
-1.7199796e-05 2.1189313e-05 7.578293e-06 -1.2823927e-05 -2.0159776e-05 7.638776e-06 3.1338983e-05 -2.584695e-06
5.315738e-06 3.3054603e-06 -4.5188804e-06 -6.440406e-06 -2.4503975e-06 8.284033e-06 1.3763283e-05 -1.0977053e-05
5.2706174e-08 -2.0719239e-05 2.2828084e-05 4.7028284e-06 -9.124309e-06 1.0625812e-05 -1.0500158e-05 7.262835e-06
6.3003217e-06 -4.5601714e-06 -1.0588786e-05 8.446041e-06 -1.9672873e-06 -1.0791923e-05 -9.4004776e-07 1.42592025e-05
1.8446528e-05 -2.3468927e-05 -2.5443767e-05 3.725197e-05 1.5948344e-05 -6.121294e-06 3.846317e-06 3.2309079e-06
-1.4539204e-06 -1.0378055e-05 3.5771798e-06 -7.5027187e-06 -9.826138e-06 1.82213e-06 8.708353e-06 8.508775e-06
-8.337103e-07 -5.1957277e-06 1.3909522e-05 7.4311442e-06 1.9599944e-05 -2.3447747e-05 -1.581984e-05 2.279848e-05
2.2293607e-05 2.5589043e-06 7.0809256e-06 9.7921e-06 -8.423202e-06 2.7197436e-06 -1.4001063e-05 1.465409e-05
3.305165e-05 -3.8952403e-05 4.130343e-06 3.4274508e-06 -8.67644e-06 -1.5298454e-05 1.5680283e-05 2.381481e-05
1.7011582e-05 -2.4129175e-05 -5.66072e-05 6.807052e-05 3.0626587e-05 6.957447e-06 -4.6419423e-06 -1.4074056e-05
1.4698507e-05 1.7713854e-05 -6.922561e-06 1.03172015e-05 1.0443246e-05 -1.3800312e-05 -3.706245e-06 -1.0383529e-05
1.7949624e-05 1.698638e-05 -2.8848384e-05 -3.564742e-06 -2.5404368e-05 3.2346492e-05 5.1101124e-05 -5.4021184e-05
2.050999e-06 -1.3757034e-05 2.1256928e-05 2.9509658e-05 -2.1626236e-05 -1.311335e-05 7.716291e-06 -9.785916e-06
-1.7354325e-05 2.1602647e-05 1.7304797e-05 -1.4860425e-05 1.9374304e-05 2.4117056e-05 -1.4573141e-05 -2.1301743e-05
1.1448469e-05 -1.1833154e-05 -3.0455953e-05 2.0042273e-05 2.593212e-05 -4.0578184e-06 -5.313352e-07 -1.1036738e-05
-5.3012395e-06 1.2317592e-07 -2.6253406e-06 -3.680902e-06 -1.654879e-05 3.5153284e-06 1.9061723e-05 -4.118317e-06
8.991949e-06 6.9295693e-06 -8.928666e-06 -9.470669e-06 -1.0581899e-05 2.1240205e-05 3.4708894e-05 -2.8993973e-05
-2.3907583e-05 -3.1205045e-06 1.6405866e-06 -1.2062423e-05 1.3227955e-05 5.128548e-06 7.9135555e-07 6.2806894e-06
-5.455034e-06 -7.5368876e-06 7.0389774e-07 5.614171e-06 2.2824431e-06 -2.9797658e-05 5.8446526e-06 1.2446858e-05
6.3156494e-06 -5.672426e-06 -2.5424286e-05 1.1561426e-05 2.28338e-05 5.0212407e-08 -8.3345356e-07 -1.2982968e-05
4.2614124e-06 5.464388e-06 2.562094e-06 -2.2623203e-06 -1.2680657e-05 3.8962116e-06 1.4379902e-05 -1.3487587e-05
2.1622793e-05 1.9923866e-05 -2.5161018e-05 -4.29309e-06 -1.3055258e-05 1.1953952e-05 1.974999e-05 -2.6064237e-05
3.3309286e-06 -2.0636796e-06 1.4571281e-06 6.8844196e-07 -8.195028e-07 1.4187509e-06 -1.8638084e-05 2.6145e-05
2.871558e-05 -3.9877712e-05 -6.066841e-06 -1.9185109e-06 7.0869946e-06 -2.7020753e-06 -3.9102774e-06 -6.1729274e-06
9.5584255e-06 -1.536734e-05 1.9122428e-05 1.9905425e-05 -7.4755367e-06 -1.0047246e-05 1.3449428e-05 8.940749e-06
-7.74798e-06 2.7573672e-06 6.970143e-06 3.6171148e-06 -3.7495127e-05 3.831871e-06 1.1219716e-05 -2.0974026e-05
00000000: 2f0a 31b6 64e7 ccb5 9061 97b7 3fb5 8137
00000010: 0184 ab37 eba1 ceb6 a9d2 2436 a6da 68b7
00000020: ffde 8bb6 341b a736 4a50 0637 93df e8b6
00000030: 7a99 10b8 8b81 8b37 8b3e 0d38 73b8 8fb7
00000040: 21ac 6937 e440 8937 39d7 42b7 e4f3 d8b7
00000050: 35ec a0b6 2866 3837 cb39 13b7 11aa ac35
00000060: 5adb 0436 bbb6 1fb7 faf4 5937 9d74 0b35
00000070: 8f3f 79b6 4b69 a5b7 1bbe 87b6 d308 4437
00000080: 7f85 f236 9ad6 0eb7 ff99 1136 bddf 1e36
00000090: 78b4 90b6 329f bbb7 d456 3937 c352 c837
000000a0: 577f 2937 b1fb 96b7 e735 89b7 f76b 9737
000000b0: de26 7137 bfd9 deb7 d9c0 9737 1524 6ab6
000000c0: 4848 90b7 b4bf b137 0b49 fe36 5926 57b7
000000d0: ca1c a9b7 4b28 0037 fa71 0338 b974 2db6
000000e0: d75d b236 60d3 5d36 e3a0 97b6 ab1a d8b6
000000f0: 8271 24b6 a7fb 0a37 dae8 6637 152a 38b7
00000100: 0d5f 6233 3ace adb7 f07e bf37 fdcc 9d36
00000110: 9c14 19b7 8445 3237 d629 30b7 47b3 f336
00000120: 5a67 d336 9303 99b6 7da6 31b7 78b3 0d37
00000130: bd05 04b6 f50e 35b7 9757 7cb5 cf3a 6f37
00000140: 9ebd 9a37 23df c4b7 1370 d5b7 003f 1c38
00000150: cfc8 8537 8465 cdb6 9d0f 8136 93d2 5836
00000160: 5324 c3b5 681d 2eb7 7b0f 7036 ddbf fbb6
00000170: f1da 24b7 e98f f435 171a 1237 e9c0 0e37
00000180: 23cc 5fb5 f656 aeb6 f15c 6937 0b59 f936
00000190: 8f6a a437 a7b1 c4b7 d9b4 84b7 5d3f bf37
000001a0: 2803 bb37 a4b9 2b36 b098 ed36 c048 2437
000001b0: 6151 0db7 d784 3636 1ce6 6ab7 d6da 7537
000001c0: f0a0 0a38 d360 23b8 6097 8a36 2803 6636
000001d0: 0791 11b7 2e55 80b7 2789 8337 eac5 c737
000001e0: 18b4 8e37 0269 cab7 856d 6db8 15c1 8e38
000001f0: 0c75 0038 0474 e936 fbc1 9bb6 9c1f 6cb7
00000200: 9b99 7637 3698 9437 5948 e8b6 0b18 2d37
00000210: 6635 2f37 e487 67b7 ceb8 78b6 eb34 2eb7
00000220: 8692 9637 f97d 8e37 6fff f1b7 cd39 6fb6
00000230: 771b d5b7 c8ab 0738 6a55 5638 ce94 62b8
00000240: e5a3 0936 03ce 66b7 e850 b237 828b f737
00000250: fd69 b5b7 6901 5cb7 3875 0137 302e 24b7
00000260: 2194 91b7 5537 b537 c529 9137 0a51 79b7
00000270: 0086 a237 fc4e ca37 2a7f 74b7 25b1 b2b7
00000280: cd12 4037 0287 46b7 a97b ffb7 7420 a837
00000290: ce88 d937 6528 88b6 14a1 0eb5 6e2a 39b7
000002a0: 4de1 b1b6 5742 0434 022f 30b6 6a05 77b6
000002b0: 42d2 8ab7 e2e8 6b36 bde6 9f37 1330 8ab6
000002c0: 20dc 1637 8c84 e836 54cc 15b7 37e4 1eb7
000002d0: e988 31b7 fe2c b237 6494 1138 1538 f3b7
000002e0: 258d c8b7 dc69 51b6 2032 dc35 b65f 4ab7
000002f0: a2ed 5d37 e415 ac36 8a6d 5435 b6be d236
00000300: 630a b7b6 5fe5 fcb6 7cf3 3c35 5d61 bc36
00000310: 132c 1936 fcf5 f9b7 2f1d c436 d9d2 5037
00000320: 04eb d336 c555 beb6 3d46 d5b7 f2f7 4137
00000330: 368b bf37 20a9 5733 7eba 5fb5 6cd1 59b7
00000340: 41fd 8e36 bc5a b736 71f0 2b36 5ed2 17b6
00000350: 02bf 54b7 34bc 8236 3541 7137 bf48 62b7
00000360: 9862 b537 2d22 a737 e010 d3b7 5d0d 90b6
00000370: e807 5bb7 d58d 4837 c8ac a537 86a4 dab7
00000380: eb88 5f36 bf7d 0ab6 8a92 c335 5fcd 3835
00000390: cefb 5bb5 e96b be35 fb58 9cb7 f651 db37
000003a0: 3de2 f037 5e42 27b8 c491 cbb6 c4bf 00b6
000003b0: d2cc ed36 4d55 35b6 0735 83b6 0b21 cfb6
000003c0: 205d 2037 1de9 80b7 1a69 a037 93fa a637
000003d0: 5fd6 fab6 9890 28b7 daa4 6137 3900 1637
000003e0: 52fd 01b7 350b 3936 13e1 e936 8fbd 7236
000003f0: 1644 1db8 8593 8036 503c 3c37 61f1 afb7

exp_avg_sq f4 [128, 5]
1.7394471e-11 1.9646963e-11 4.4909725e-11 7.842014e-11 2.0803968e-10 1.752774e-11 2.9633657e-11 7.832844e-11
8.9071285e-11 1.5742083e-10 1.1507763e-11 2.968551e-11 7.0439723e-11 6.62942e-11 1.3343743e-10 4.166942e-11
6.537733e-11 1.1217244e-10 2.305418e-10 3.275807e-10 2.6047315e-11 3.629426e-11 5.4265637e-11 9.530582e-11
2.260179e-10 1.760768e-11 3.6953537e-11 5.32957e-11 1.1889058e-10 2.1096043e-10 1.6092131e-11 4.40422e-11
6.267278e-11 1.3686884e-10 2.4971683e-10 4.4966036e-12 8.9315595e-12 2.7251054e-11 2.1851345e-11 7.273687e-11
3.2122447e-11 4.8755885e-11 1.2984534e-10 1.3968002e-10 2.429718e-10 1.33109e-10 1.2745205e-10 2.5375965e-10
5.221719e-10 1.290686e-09 1.5037107e-11 4.0328154e-11 5.4835875e-11 9.9865435e-11 2.194255e-10 2.0588208e-12
4.8379464e-12 9.268414e-12 7.3230606e-12 1.6657712e-11 9.368521e-12 2.549649e-11 6.234381e-11 8.5750865e-11
1.4354933e-10 7.177093e-11 1.10021346e-10 2.3692157e-10 5.473639e-10 7.4882883e-10 8.876636e-12 1.3232542e-11
1.40773e-11 2.4080661e-11 7.438222e-11 1.1095933e-11 1.6493442e-11 3.064306e-11 6.9377365e-11 1.5290465e-10
3.4886025e-11 3.606161e-11 5.9165985e-11 6.580791e-11 1.2821617e-10 4.750565e-12 6.6496574e-12 7.370352e-12
1.5901062e-11 5.059366e-11 4.4403916e-12 1.0592534e-11 1.6544658e-11 1.2352201e-11 4.0834464e-11 1.5455984e-11
1.7070163e-11 3.655713e-11 3.5482114e-11 9.576289e-11 5.137223e-11 7.641167e-11 1.1995778e-10 2.1872197e-10
3.3842415e-10 1.1925212e-11 2.4553646e-11 5.0940935e-11 1.0433724e-10 9.881581e-11 9.695706e-11 1.7473664e-10
5.27879e-10 9.0900854e-10 8.611278e-10 1.6547201e-11 2.835144e-11 4.374064e-11 3.9963994e-11 1.716122e-10
5.6185858e-11 7.342297e-11 3.3628705e-10 2.5317404e-10 3.7971182e-10 9.760211e-12 1.0478775e-11 4.209017e-11
3.4669472e-11 6.132289e-11 8.176683e-12 3.245551e-11 5.1850448e-11 1.5876096e-10 1.286755e-10 1.9047973e-11
4.1256033e-11 9.558576e-11 1.6007552e-10 2.1075501e-10 1.08535764e-10 1.7221241e-10 5.546869e-10 7.651535e-10
1.0548292e-09 3.2706192e-11 9.3697584e-11 1.8968002e-10 2.5995725e-10 3.1748595e-10 5.593922e-12 7.682002e-12
2.451717e-11 2.099826e-11 3.1568498e-11 3.412953e-11 8.096269e-11 1.2859137e-10 2.0422847e-10 3.4521455e-10
1.1081379e-11 2.3343771e-11 6.6985494e-11 7.1129574e-11 1.0353811e-10 1.7779304e-11 3.548483e-11 7.8971434e-11
1.3511402e-10 1.5963768e-10 1.2448176e-11 2.4423207e-11 5.3505658e-11 8.4848205e-11 1.23191e-10 4.666409e-12
9.633456e-12 2.002239e-11 2.5854843e-11 2.9474517e-11 2.954836e-11 7.326794e-11 1.640948e-10 2.0050345e-10
2.903541e-10 6.65148e-12 7.558271e-12 2.1070996e-11 5.133923e-11 7.359635e-11 5.5153148e-12 1.33580005e-11
1.7958742e-11 4.6217218e-11 7.8757674e-11 6.9802636e-12 1.4265207e-11 4.992947e-11 4.618937e-11 8.960426e-11
6.7734997e-12 1.381936e-11 4.158631e-11 3.8549382e-11 9.340922e-11 1.817597e-12 4.3467964e-12 1.4323334e-11
1.4368917e-11 2.8565561e-11 1.03926225e-11 2.3341955e-11 4.0620462e-11 3.9733303e-11 1.2180347e-10 2.5566254e-11
5.9235415e-11 1.1926103e-10 2.6135058e-10 2.9988861e-10 1.5223515e-11 1.792751e-11 6.485978e-11 7.455161e-11
1.3463716e-10 1.640132e-12 3.3940255e-12 6.0566456e-12 1.9440321e-11 2.6630009e-11 5.2271992e-11 5.5559734e-11
1.341087e-10 1.9477778e-10 2.8826436e-10 2.7920288e-11 6.3370836e-11 1.7194528e-10 1.903396e-10 2.477769e-10
3.7612826e-11 6.713381e-11 9.230423e-11 9.4794256e-11 3.704984e-10 1.6142972e-11 2.019869e-11 3.5607798e-11
7.488728e-11 1.3308477e-10 1.710578e-11 4.009865e-11 1.10137156e-10 1.06337064e-10 2.670104e-10 1.0523148e-10
00000000: de00 992d 07d1 ac2d db83 452e 9d72 ac2e
00000010: f7bd 642f f62c 9a2d 8854 022e fe3e ac2e
00000020: adde c32e 0616 2d2f 5b72 4a2d ea8e 022e
00000030: 0ae6 9a2e 51c8 912e 4cb7 122f 9943 372e
00000040: 2ac4 8f2e 78ab f62e bf7b 7d2f e316 b42f
00000050: 571d e52d b49f 1f2e ada9 6e2e 6894 d12e
00000060: 6282 782f f8e0 9a2d fc85 222e a065 6a2e
00000070: b9b8 022f 15f4 672f 428c 8d2d 1cb3 412e
00000080: a3d1 892e 277d 162f 8548 892f ce35 9e2c
00000090: 2b20 1d2d ebb3 ef2d db34 c02d 38f3 9f2e
000000a0: a946 0d2e 3f6e 562e 37c4 0e2f 6e94 192f
000000b0: 3e93 852f da5a 122f 9022 0c2f 7f81 8b2f
000000c0: 9588 0f30 fa63 b130 8e44 842d 775d 312e
000000d0: b52b 712e 3e9b db2e ca42 712f 6be0 102c
000000e0: 5938 aa2c 3a0d 232d 22d4 002d d585 922d
000000f0: 11d0 242d fe44 e02d 7218 892e 7291 bc2e
00000100: 8bd5 1d2f 71d3 9d2e 83f0 f12e bf3f 822f
00000110: 4f75 1630 25d6 4d30 d128 1c2d 12ca 682d
00000120: 86a6 772d d4d0 d32d 7891 a32e a433 432d
00000130: ee13 912d 05c5 062e fc8f 982e d51e 282f
00000140: 2c6e 192e c399 1e2e 7d1b 822e 8fb6 902e
00000150: a5f9 0c2f 4925 a72c caf6 e92c 1da9 012d
00000160: 02de 8b2d 6683 5e2e 7e3b 9c2c 8858 3a2d
00000170: 4287 912d 5e4d 592d 8597 332e c8f3 872d
00000180: 9726 962d abc7 202e 4f0d 1c2e b795 d22e
00000190: fdef 612e f207 a82e 1de5 032f c37c 702f
000001a0: f70c ba2f 61ca 512d e5f9 d72d 650a 602e
000001b0: a570 e52e 5b4c d92e f935 d52e fe1f 402f
000001c0: 2f1a 1130 cadd 7930 7bb4 6c30 fc8c 912d
000001d0: c461 f92d 955f 402e 75c3 2f2e 8ab0 3c2f
000001e0: a71b 772e 7575 a12e 32e0 b82f 142f 8b2f
000001f0: b0bf d02f 15b4 2b2d 3558 382d 521d 392e
00000200: 5b7a 182e b8d9 862e 82d8 0f2d a8bd 0e2e
00000210: 6a0a 642e 3d8f 2e2f ef7a 0d2f 398c a72d
00000220: 2a72 352e 0032 d22e 4101 302f 43ba 672f
00000230: 34ac ee2e 7c59 3d2f 9f78 1830 e452 5230
00000240: 81f9 9030 e6d7 0f2e 0d0b ce2e 2e8e 502f
00000250: bbe9 8e2f 2d8a ae2f 92d1 c42c a924 072d
00000260: c2a7 d72d e1b3 b82d f8d6 0a2e 6f1a 162e
00000270: f109 b22e 4163 0d2f 348d 602f a1c8 bd2f
00000280: 18f2 422d 8055 cd2d 7b4d 932e 646a 9c2e
00000290: c6ae e32e 6f63 9c2d 5e10 1c2e f7a8 ad2e
000002a0: 378f 142f 0386 2f2f 9afd 5a2d 2cd4 d62d
000002b0: 0452 6b2e 4b95 ba2e 2f73 072f 472f a42c
000002c0: 3b79 292d 6a1e b02d ee6b e32d 5ba1 012e
000002d0: 7ff4 012e 2f1e a12e 946c 342f b474 5c2f
000002e0: b59f 9f2f 3507 ea2c 6df7 042d aa57 b92d
000002f0: d6ca 612e 10d7 a12e 8a0d c22c 16ff 6a2d
00000300: 7ef7 9d2d f643 4b2e a130 ad2e a098 f52c
00000310: c8f4 7a2d 9697 5b2e 9b24 4b2e b70a c52e
00000320: 4352 ee2c dd1c 732d 06e6 362e bf8a 292e
00000330: b768 cd2e d5cd ff2b 76f0 982c 90fa 7b2d
00000340: d9c7 7c2d ed43 fb2d 36d4 362d 6951 cd2d
00000350: 93a6 322e b9bf 2e2e a1ec 052f 16e2 e02d
00000360: 9342 822e ff20 032f d3ad 8f2f 92dd a42f
00000370: 4fe8 852d 2ab1 9d2d cfa0 8e2e d3f0 a32e
00000380: fe08 142f fcd3 e62b 54d5 6e2c 6a19 d52c
00000390: b6ff aa2d 733d ea2d 08e5 652e b35a 742e
000003a0: 3e74 132f 1229 562f 9a79 9e2f e696 f52d
000003b0: 9c5a 8b2e 4b0e 3d2f d647 512f 8037 882f
000003c0: 476c 252e faa0 932e a9fa ca2e 6c74 d02e
000003d0: 04af cb2f befe 8d2d 68ab b12d d19a 1c2e
000003e0: caad a42e 0854 122f cb76 962d 115b 302e
000003f0: b531 f22e 72d6 e92e 60ca 922f 0f68 e72e

exp_avg f4 [128]
-4.875996e-05 -2.169457e-05 -5.7365905e-05 5.6767592e-05 -3.8257007e-05 1.7839122e-05 5.5943783e-05 -5.2576965e-05
-2.121408e-05 -4.6524903e-05 -3.3171018e-05 7.932021e-06 5.2794283e-05 2.6080534e-05 2.9456824e-05 -3.85018e-05
-3.906586e-05 2.3354412e-05 -2.018163e-05 -3.10141e-05 -3.9897925e-05 1.2152416e-05 0.0001329943 -6.523188e-05
-0.00014859019 -4.1585226e-05 4.1714728e-05 5.5510845e-05 0.00011919719 8.007782e-05 -4.2700955e-05 9.033844e-05
-6.0100694e-05 -1.6727961e-05 -1.20049335e-05 1.7524944e-05 8.849262e-05 -3.5253102e-05 -1.0827606e-05 -5.2274972e-05
-4.6411227e-05 -1.561909e-05 -4.4022327e-05 5.5695797e-05 3.3249948e-05 1.0852789e-05 3.4859757e-05 -3.4104567e-05
3.9911123e-05 1.6708917e-05 -8.5424515e-05 4.5341454e-05 -2.5817299e-06 4.7806425e-06 4.962013e-05 3.380529e-05
-3.9044835e-06 1.4893174e-05 3.239863e-05 -5.61575e-05 6.1910316e-05 2.0748554e-05 -2.1283113e-06 8.5930726e-05
1.6784132e-05 7.356139e-06 -7.1188784e-05 5.110872e-06 -9.244464e-06 -1.6230804e-05 -7.619051e-05 -2.8830933e-05
7.430409e-05 -7.4293337e-07 3.2546424e-05 1.6134196e-05 2.7905695e-05 -7.604144e-05 -1.2910183e-05 -8.1299484e-05
-0.00014289087 2.482075e-06 2.345656e-05 5.633654e-05 4.399627e-05 7.774159e-05 -5.199543e-05 -9.053392e-05
-7.652162e-05 8.0812715e-05 6.997294e-05 2.7639222e-05 -3.0644947e-05 -1.3704321e-06 7.891813e-05 2.117823e-05
-4.0671082e-05 2.7598586e-05 -2.8868508e-05 4.034491e-05 2.7034806e-05 -4.8993235e-05 5.877226e-05 -1.9239043e-05
-1.6908112e-05 2.4042549e-05 2.3059312e-05 -1.1194247e-05 -9.561934e-06 -0.00013479312 -1.5741547e-05 5.4533917e-05
-3.8915397e-05 -5.6549475e-06 1.8253799e-05 0.00010545639 1.0697056e-05 5.4163615e-05 1.16128485e-05 3.8095703e-05
-3.6587874e-06 -2.1700034e-05 -8.976345e-05 -5.5462144e-05 -3.9935094e-05 -2.7771973e-06 -9.4057134e-07 -8.5965425e-05
00000000: 9c83 4cb8 bcfc b5b7 2c9c 70b8 bd19 6e38
00000010: 2676 20b8 39a5 9537 2ea5 6a38 1686 5cb8
00000020: e4f4 b1b7 bc23 43b8 1c21 0bb8 c513 0537
00000030: 6e6f 5d38 85c7 da37 0c1a f737 fe7c 21b8
00000040: a6da 23b8 38e9 c337 b84b a9b7 2315 02b8
00000050: 1258 27b8 3be2 4b37 6374 0b39 19cd 88b8
00000060: e0ce 1bb9 cc6b 2eb8 d9f6 2e38 51d4 6838
00000070: 81f9 f938 74ef a738 cd19 33b8 1574 bd38
00000080: a114 7cb8 0653 8cb7 cc68 49b7 8802 9337
00000090: 1d95 b938 bbdc 13b8 37a8 35b7 d341 5bb8
000000a0: ada9 42b8 be05 83b7 9da4 38b8 e89a 6938
000000b0: dc75 0b38 6014 3637 6136 1238 800b 0fb8
000000c0: 3e66 2738 202a 8c37 f025 b3b8 042d 3e38
000000d0: c841 2db6 6869 a036 351f 5038 27ca 0d38
000000e0: 4203 83b6 b2dd 7937 c4e3 0738 a88a 6bb8
000000f0: d9d5 8138 2e0d ae37 1cd4 0eb6 b535 b438
00000100: a6cb 8c37 c1d4 f636 304b 95b8 0e7e ab36
00000110: ac18 1bb7 6327 88b7 78c8 9fb8 f5d9 f1b7
00000120: b4d3 9b38 fe6d 47b5 7582 0838 ec57 8737
00000130: 0617 ea37 7078 9fb8 d098 58b7 547f aab8
00000140: fad4 15b9 b991 2636 94c4 c437 e64a 6c38
00000150: a388 3838 3309 a338 ab15 5ab8 07dd bdb8
00000160: 3b7a a0b8 ff79 a938 70be 9238 c7da e737
00000170: c388 00b8 b0ef b7b5 d980 a538 e7a7 b137
00000180: 3e96 2ab8 8383 e737 a62a f2b7 0438 2938
00000190: cec8 e237 167e 4db8 3c82 7638 8863 a1b7
000001a0: e5d5 8db7 fbae c937 7f6f c137 edce 3bb7
000001b0: 326c 20b7 4157 0db9 b70c 84b7 59bb 6438
000001c0: 1739 23b8 a1bf bdb6 bc1f 9937 7828 dd38
000001d0: 8177 3337 bd2d 6338 ced4 4237 f3c8 1f38
000001e0: 7d89 75b6 7808 b6b7 633f bcb8 06a0 68b8
000001f0: fb7f 27b8 e35f 3ab6 927b 7cb5 5648 b4b8

exp_avg_sq f4 [128]
3.6717737e-10 3.6431141e-10 4.4313964e-10 1.4311166e-09 5.182905e-10 5.9962624e-10 5.506455e-10 2.045267e-10
5.5921334e-10 1.8254963e-09 5.0489574e-10 6.2560825e-11 3.741389e-10 1.7981153e-09 2.8435534e-10 4.1551967e-10
5.45945e-10 1.7055064e-10 1.3822483e-10 3.5960113e-10 1.395502e-09 2.0290994e-10 2.719021e-09 4.811514e-10
1.7732543e-09 2.7305636e-10 4.236676e-10 5.081258e-10 2.8576583e-09 1.3732686e-09 1.8111501e-10 1.4398003e-09
4.768542e-10 3.8790446e-10 2.3130602e-10 1.3356166e-10 1.0679608e-09 1.3367792e-10 1.4394795e-10 2.751256e-10
3.2546257e-10 5.2609545e-11 3.4246128e-10 7.3469913e-10 2.4309613e-10 5.3458488e-11 6.7495604e-10 5.283573e-10
9.409227e-10 3.059312e-10 9.1448493e-10 2.8091887e-09 2.0966534e-10 3.2819225e-10 1.1087417e-09 6.589521e-10
1.3092112e-10 1.8081486e-10 3.006931e-09 4.2027687e-10 1.3142912e-09 8.923931e-11 7.0283485e-10 1.0146155e-09
6.097263e-10 2.661069e-10 5.9333394e-10 4.0237078e-11 1.4609122e-10 9.9986096e-11 9.598723e-10 2.3704885e-10
1.2567787e-09 8.2133994e-10 5.332655e-10 1.8056459e-10 2.2170824e-10 6.610609e-10 7.5068896e-11 8.813299e-10
1.3478433e-09 2.7643912e-10 3.300182e-10 5.8973726e-10 5.1108395e-10 8.498615e-10 1.557447e-10 7.7349005e-10
1.0173719e-09 8.707187e-10 1.4252137e-09 1.9569475e-09 1.2524543e-10 1.2977251e-10 1.5783032e-09 1.4579614e-10
1.798184e-10 2.7716204e-10 3.1130748e-10 1.0080592e-09 6.798549e-10 5.149763e-10 6.943165e-10 2.0907572e-10
7.522372e-11 6.5766786e-10 6.8526546e-10 1.7776712e-10 9.854613e-11 2.0959687e-09 1.8652996e-10 7.902554e-10
1.4755146e-10 6.568655e-11 1.9631458e-10 2.8449503e-09 1.2476348e-10 5.8482946e-10 3.5132486e-10 3.3144068e-10
7.097023e-11 2.8205424e-10 1.2100642e-09 3.3995845e-10 2.565893e-10 1.2582806e-10 4.0209516e-11 1.3976349e-09
00000000: 9fdb c92f 4648 c82f 5c9e f32f f0b0 c430
00000010: 7477 0e30 f2d2 2430 3b5c 1730 26e1 602f
00000020: 24b7 1930 f1e4 fa30 e1c8 0a30 9d92 892e
00000030: 5eaf cd2f 8f21 f730 7553 9c2f 326f e42f
00000040: 7711 1630 bd85 3b2f d5fa 172f 5cb1 c52f
00000050: ddcb bf30 121a 5f2f 86d9 3a31 0542 0430
00000060: d7b6 f330 441d 962f eae9 e82f 2dac 0b30
00000070: 7560 4431 98bd bc30 5823 472f 78e2 c530
00000080: a213 0330 b340 d52f db52 7e2f 44da 122f
00000090: 88c7 9230 fdfa 122f bf45 1e2f 7c40 972f
000000a0: c9ec b22f 1561 672e 2445 bc2f dbf3 4930
000000b0: bda4 852f e81c 6b2e cf87 3930 d73b 1130
000000c0: c651 8130 fd2f a82f 285f 7b30 c50b 4131
000000d0: 8c87 662f f46c b42f 6162 9830 a221 3530
000000e0: 05f3 0f2f dcce 462f 7da2 4e31 b60c e72f
000000f0: 83a2 b430 443d c42e 9b31 4130 9c72 8b30
00000100: ad99 2730 374b 922f 2a18 2330 ecf6 302e
00000110: 06a1 202f 2bdf db2e 81ec 8330 a951 822f
00000120: f8ba ac30 a9c4 6130 3995 1230 6a88 462f
00000130: 52c5 732f 06b6 3530 0814 a52e 1442 7230
00000140: 053f b930 59f9 972f ef6d b52f 121b 2230
00000150: 567c 0c30 b09b 6930 3c3e 2b2f 869d 5430
00000160: 97d3 8b30 6257 6f30 40e1 c330 fc7a 0631
00000170: 74b5 092f b7af 0e2f 9beb d830 f74d 202f
00000180: 61b6 452f 175f 982f a224 ab2f ee8b 8a30
00000190: 89e0 3a30 3c8e 0d30 2eda 3e30 95e1 652f
000001a0: 316b a52e 43c7 3430 455d 3c30 ff74 432f
000001b0: 8ab4 d82e ac08 1031 8417 4d2f 4839 5930
000001c0: 0b3c 222f 3e72 902e a4d9 572f e580 4331
000001d0: cc2d 092f b7c1 2030 9424 c12f 2136 b62f
000001e0: b010 9c2e 9b0f 9b2f 594f a630 e6e4 ba2f
000001f0: bc0f 8d2f 7359 0a2f e4d7 302e e816 c030
